benchmarks/.darts/checkpoints/torch_model_run/checkpoint_95.pth.tar (torch, 59591 bytes, 54 tensors)

weight f4 [3, 1, 3]
000000 e8 3f 21 be 11 07 8d 3e 86 a1 07 bd 38 e7 25 be
       -0.15747035 0.27544454 -0.033113025 -0.16201484
000010 93 e1 fb bc 0d 58 d5 3e a3 d2 97 3e 45 e5 d9 3e
       -0.03074721 0.4166874 0.2965289 0.4255773
000020 be a6 9e be
       -0.3098659

bias f4 [3]
000000 06 90 11 3d e7 d9 0d be dc 33 f7 be
       0.035537742 -0.13852654 -0.48281753

weight f4 [3, 3, 3]
000000 1b a9 c4 3d ca 27 8c 3e 74 cc 19 3e ee 63 a6 be
       0.09602567 0.27374107 0.15019399 -0.32498115
000010 ea 1c d9 37 15 b2 ad bd 8f 0a 9d be 31 b3 df 3d
       2.588188e-05 -0.08481232 -0.30672118 0.1092285
000020 ad 47 8a 3d 54 e8 82 3d b7 f2 82 3d 8f 2c 24 3e
       0.06751952 0.06391969 0.063939504 0.16032623
000030 79 d6 da bc 45 81 bd 3d 07 53 6b 3e e8 dd 43 bc
       -0.026713597 0.09253172 0.22980891 -0.011954762
000040 43 42 72 3d 5c fb 9f 3e ce 1a c2 3d e3 de 13 3e
       0.059145223 0.3124646 0.09477769 0.14440493
000050 ce 86 53 bd 31 25 36 bd d6 04 2a 3e af 9c ec 3c
       -0.05164223 -0.044469062 0.16603407 0.028883306
000060 6a 14 a6 3e 3a 46 21 3e fe e2 c7 bd
       0.3243745 0.15749446 -0.09760092

bias f4 [3]
000000 e2 77 59 be 3e cb b8 bc c4 f5 12 bc
       -0.21237138 -0.02255785 -0.008969728

weight f4 [3, 1, 1]
000000 35 24 f0 bc 93 8e 64 3f b2 38 e2 be
       -0.02931414 0.8928005 -0.4418388

bias f4 [3]
000000 f4 c2 0c bf ca 82 2d bf 7c a2 1f bf
       -0.54984975 -0.67777693 -0.62357306

weight f4 [3, 3, 3]
000000 c2 24 56 be 74 9d 89 3e 75 2f 9a be 61 04 50 3e
       -0.2091246 0.2687794 -0.30114332 0.2031417
000010 f7 89 09 be e0 c1 b9 be 01 20 90 3e 22 a5 1a 3d
       -0.13431536 -0.36280727 0.28149417 0.03775514
000020 cf ec f1 3e 4a 2e b6 3e a1 e4 62 3e 3a 2b 12 b9
       0.47250983 0.3558219 0.22157528 -0.00013939748
000030 44 97 67 3e 75 61 33 be 3f bf aa be 8a 53 b8 be
       0.22616297 -0.17517646 -0.33349034 -0.36001235
000040 b4 1b cc 3c 57 10 95 3d c1 dc 0d be cb 09 6c be
       0.024915554 0.07278507 -0.13853742 -0.2305061
000050 05 21 92 bd 57 73 09 be 4f cc f6 3c ed 6d 93 be
       -0.07135204 -0.13422905 0.030126719 -0.28794804
000060 16 15 26 3d 2d fe 12 3e 12 14 a5 3e
       0.040547453 0.14354773 0.32241875

bias f4 [3]
000000 73 a6 a0 3e 14 40 59 3e 61 54 79 3d
       0.3137699 0.2121585 0.060871486

weight f4 [3, 3, 3]
000000 50 4f 45 3d 62 15 6b 3e a1 67 8f 3e 14 8f 8e bd
       0.04817134 0.22957376 0.2800875 -0.06960884
000010 a6 08 70 3d 68 45 9e 3e 3b a4 be 3c 0f d1 14 3e
       0.058601998 0.30912328 0.02327167 0.14532875
000020 dc 80 92 3e e0 cb 73 bd 14 fe bf be 4c 23 4e bd
       0.28613937 -0.059520602 -0.37498534 -0.05032663
000030 ad e0 fd bd 74 7f 9d be bf a3 53 be 25 fa 4c 3d
       -0.12396369 -0.30761302 -0.20667933 0.050043244
000040 97 0e 0b be e8 a4 f9 be 4f 10 30 be 3a 02 cc be
       -0.13579784 -0.48758626 -0.17193721 -0.3984545
000050 a1 35 c5 bd 69 4f c9 bd 98 05 3d be e4 08 bb bd
       -0.096293695 -0.098295994 -0.18459165 -0.09132555
000060 11 98 5b 3c 80 2e 73 be b5 87 0c bf
       0.013402955 -0.23748207 -0.5489457

bias f4 [3]
000000 9d bb 81 b9 35 94 bc 3d 37 4e c4 3d
       -0.0002474458 0.09207956 0.09585231

weight f4 [3, 3, 3]
000000 8a 43 e3 3a 40 3f a0 3d bc 61 3c bf cd 8c 8f 3c
       0.0017338854 0.07824564 -0.7358663 0.017523194
000010 57 13 31 3e 2c 4f f7 be 20 23 70 be b0 0e b6 3e
       0.17292534 -0.4830259 -0.23450899 0.3555808
000020 0b 74 26 3f 7c c2 c5 bd 2c 63 73 bd e7 45 ba be
       0.6502082 -0.096562356 -0.05942075 -0.36381456
000030 2a f8 33 3c bd 42 52 bd b4 36 48 bd 5c c1 28 3e
       0.01098446 -0.051333178 -0.048880294 0.16480011
000040 bb eb 4c bd 0c e0 d5 3e 7f 94 6f bd 78 a1 39 be
       -0.050029498 0.41772497 -0.058491226 -0.18128002
000050 f6 64 80 bc dc f4 2b 3e 1c 17 19 3e a6 d0 bc be
       -0.015673142 0.16792625 0.14950222 -0.36877936
000060 f3 e2 98 bd a1 ef de bc 5a 08 a3 3e
       -0.07465162 -0.027213873 0.3184231

bias f4 [3]
000000 53 3e 86 3e 33 72 7a 3e 23 02 82 3e
       0.26219425 0.24457626 0.25392255

weight f4 [3, 3, 3]
000000 87 39 8d bd b6 ed dd 3c 58 0a 1f 3f 0b 3d 31 bd
       -0.06895738 0.027090888 0.6212516 -0.043271106
000010 bc fe c0 3c ec bd c4 3e 42 00 1d 3e 66 55 8b 3e
       0.023558967 0.3842615 0.1533213 0.2721359
000020 72 f6 67 3e c6 26 a5 bd d0 4c bd be c0 fc 66 be
       0.22652605 -0.08064036 -0.36972666 -0.22557354
000030 3a 69 2a 3e 3b 6e 40 3e f5 74 94 be a0 00 f1 bd
       0.16641703 0.1879205 -0.2899548 -0.11767697
000040 20 c9 69 be 1d 81 9f be 50 5d 4b be 1e ab bb bc
       -0.2283063 -0.31153193 -0.19859815 -0.022908743
000050 df f9 91 bd 6f 22 04 3d dc af 9c be cb a1 06 be
       -0.07127737 0.0322594 -0.3060292 -0.13147657
000060 dc e5 b1 3c 0b 73 16 be 7f 8a 7c be
       0.02171605 -0.14692323 -0.24662207

bias f4 [3]
000000 d1 08 12 be 70 83 8a 3d 5e 2f 44 3d
       -0.14261176 0.06763351 0.047896735

weight f4 [3, 3, 3]
000000 52 05 87 bc e9 82 b9 bd c6 87 d6 be 2d cb 45 bc
       -0.01648203 -0.09058172 -0.41900462 -0.012072367
000010 12 c2 0b 3d 24 7f 84 be 53 7a b5 3d d1 f7 8d bd
       0.034120627 -0.2587825 0.08861222 -0.06932033
000020 8d 4f 16 3f da ef 9c bd fe 63 2d 3d ab 07 ac be
       0.58715135 -0.076629356 0.042331688 -0.335996
000030 c4 fc 86 3d af 04 e1 3d 08 fc 78 be ac 75 8b bd
       0.0659118 0.109872214 -0.24314892 -0.068095535
000040 f8 fd b0 3d c6 bf 43 3e 9b 2a f2 3d 31 e7 f1 3b
       0.08642191 0.19116125 0.118245326 0.0073822965
000050 ba 5b 92 be 91 cf 3c 3d 19 6a 64 3d c3 8e 81 be
       -0.28585607 0.04609639 0.055765245 -0.2530423
000060 f3 8d e6 bd 8c 8b aa bd a2 9f 68 3e
       -0.112575434 -0.08327398 0.22717145

bias f4 [3]
000000 cf 77 53 3e 06 7c 42 3e 9c 95 2c bb
       0.20651172 0.18992624 -0.0026334291

weight f4 [1, 3, 3]
000000 a1 ba 04 3d 87 fb e4 3c a0 0a a8 be f4 d6 8b bd
       0.032404546 0.027951969 -0.32820606 -0.068281084
000010 11 a1 95 bd 94 d0 57 be 6f a0 7b bd 9b 48 7b 3c
       -0.073061116 -0.2107566 -0.0614323 0.015337135
000020 7a a8 7b be
       -0.24575987

weight f4 [1, 3, 1]
000000 ea 5d b3 be fd 35 35 3f 20 d6 99 bd
       -0.35032588 0.70785505 -0.07511544

exp_avg f4 [3, 1, 3]
000000 2b 4c a5 38 d5 49 fc 38 a0 be a1 37 37 cd 27 b8
       7.8820005e-05 0.00012030049 1.9281462e-05 -4.0007024e-05
000010 70 c9 92 37 16 46 b7 b7 ad 12 2d 39 99 1f 0a 39
       1.7498358e-05 -2.1847936e-05 0.00016505523 0.00013172477
000020 d2 6f cb 38
       9.7006225e-05

exp_avg_sq f4 [3, 1, 3]
000000 d0 0d 15 38 8e e2 44 38 58 21 82 38 c7 f7 03 36
       3.5537232e-05 4.6941037e-05 6.205094e-05 1.9664747e-06
000010 4f 83 f7 35 a5 cc 19 36 be 73 f9 36 43 3c 08 37
       1.844115e-06 2.2917895e-06 7.4342524e-06 8.1202625e-06
000020 63 b2 41 37
       1.154523e-05

exp_avg f4 [3]
000000 c9 f7 52 39 fc 5b c1 37 47 2b ec 38
       0.00020119468 2.3050226e-05 0.00011261418

exp_avg_sq f4 [3]
000000 11 f0 af 39 63 8d 35 37 18 b0 59 37
       0.00033557464 1.082136e-05 1.2975208e-05

exp_avg f4 [3, 3, 3]
000000 b9 de c2 04 79 0b 37 04 52 ca 33 04 04 00 00 00
       4.581372e-36 2.1516815e-36 2.113425e-36 6e-45
000010 6e c2 91 04 04 00 00 80 04 00 00 00 1c e5 8d 04
       3.426789e-36 -6e-45 6e-45 3.3359344e-36
000020 a6 75 8d 04 df 44 d7 37 09 21 b8 b8 32 a8 2c 39
       3.3256984e-36 2.5662068e-05 -8.779957e-05 0.00016465856
000030 8d 14 16 b9 27 3d 7c b8 01 02 31 b8 49 9d 7b 38
       -0.0001431277 -6.0138434e-05 -4.2201955e-05 5.9989547e-05
000040 28 8b 26 38 18 50 40 38 19 d5 9a b7 34 15 f9 37
       3.9707083e-05 4.585096e-05 -1.8457462e-05 2.9692987e-05
000050 cc 57 35 b8 dc 29 53 38 19 12 1d 38 2c 2b 3e 38
       -4.323553e-05 5.0345305e-05 3.744857e-05 4.5339737e-05
000060 1f 0f 51 37 b6 da 70 37 bd f0 76 37
       1.2460891e-05 1.4356037e-05 1.4718794e-05

exp_avg_sq f4 [3, 3, 3]
000000 87 7a ff 37 65 56 32 38 4a 77 1b 38 98 28 8e 34
       3.0455425e-05 4.251897e-05 3.7065976e-05 2.6479097e-07
000010 94 3e 7c 36 88 bb 4b 36 5a c9 e8 34 fb 5f 72 35
       3.7587351e-06 3.0358515e-06 4.335987e-07 9.0291695e-07
000020 d3 ea 8f 35 74 23 20 39 ce a9 2d 39 ac 95 40 39
       1.0722673e-06 0.00015271996 0.00016561823 0.00018366304
000030 e0 94 58 38 2b 1d 6b 38 86 c6 80 38 46 d7 d5 36
       5.1637064e-05 5.605553e-05 6.1404935e-05 6.372956e-06
000040 16 e1 eb 36 f5 6c 02 37 ef 40 ad 33 1b 03 e7 33
       7.029749e-06 7.773972e-06 8.0677516e-08 1.07573406e-07
000050 25 c8 ac 33 ac 90 71 36 d5 82 8e 36 c7 44 79 36
       8.04578e-08 3.5996009e-06 4.2471606e-06 3.7143925e-06
000060 e9 48 9b 35 ca e7 99 35 66 f7 96 35
       1.156962e-06 1.1466848e-06 1.1247873e-06

exp_avg f4 [3]
000000 01 aa 3f 05 00 68 a3 36 57 07 0f b9
       9.0120016e-36 4.8698857e-06 -0.00013640277

exp_avg_sq f4 [3]
000000 43 fb 56 38 4a 45 ed 3a 1d 58 ec 36
       5.125558e-05 0.0018102315 7.043606e-06

exp_avg f4 [3, 1, 1]
000000 3f a5 5d 3b 66 3c 7e bb 02 19 7b ba
       0.0033820418 -0.0038793324 -0.00095786166

exp_avg_sq f4 [3, 1, 1]
000000 4c de 9f 3a 2a 07 d4 3a a0 03 45 39
       0.0012196987 0.0016176451 0.00018788734

exp_avg f4 [3]
000000 29 ad 9b ba be f9 b9 b9 bb ba 4b 3a
       -0.0011877167 -0.00035472022 0.00077716605

exp_avg_sq f4 [3]
000000 f0 17 6b 3b 9a 89 bf 3a 22 df 8e 3a
       0.0035872422 0.0014613152 0.0010900239

exp_avg f4 [3, 3, 3]
000000 77 70 72 38 8d 33 30 37 46 f7 15 38 00 1a 08 ba
       5.7802037e-05 1.050242e-05 3.575466e-05 -0.00051918626
000010 a0 b9 e0 b9 71 3f 1f b9 83 d6 a9 39 9d 4e 57 39
       -0.0004286291 -0.00015187055 0.00032394016 0.00020533284
000020 1a 18 03 39 8d 5c 24 37 42 6c 10 b8 91 cd 70 38
       0.00012502112 9.79671e-06 -3.44331e-05 5.7411908e-05
000030 81 c5 be b9 74 b5 8d b9 41 bc b2 b7 a2 84 2b 39
       -0.00036386776 -0.0002702881 -2.1306916e-05 0.0001635724
000040 ee ad 5b 38 ab 27 bf 38 50 56 68 37 40 07 c4 b4
       5.2375653e-05 9.1149785e-05 1.3848374e-05 -3.651312e-07
000050 bf c9 7e 38 12 d4 08 ba 91 5c c9 b9 b6 9a 50 b8
       6.074621e-05 -0.0005219589 -0.00038406675 -4.973515e-05
000060 00 7b 83 39 22 71 2f 39 c8 5a 00 39
       0.0002507791 0.00016731446 0.0001224085

exp_avg_sq f4 [3, 3, 3]
000000 b5 22 37 38 94 7d 4b 38 cc 76 55 38 48 47 8c 37
       4.3662923e-05 4.8515925e-05 5.0893796e-05 1.6722493e-05
000010 b8 8c 79 37 36 0c 85 37 a8 20 c8 36 75 6f d5 36
       1.487432e-05 1.5860522e-05 5.964266e-06 6.36087e-06
000020 2a 17 d2 36 99 29 a0 37 a7 a8 be 37 a8 ba d3 37
       6.2611844e-06 1.9092857e-05 2.27283e-05 2.5240079e-05
000030 a5 69 c9 36 6a 9e f3 36 44 2b 02 37 59 ed bc 36
       6.0025654e-06 7.260406e-06 7.758677e-06 5.6304675e-06
000040 bc a5 c8 36 91 02 d3 36 7f 8a c1 38 b2 8d d7 38
       5.9797585e-06 6.288589e-06 9.228754e-05 0.00010278392
000050 4b 16 eb 38 50 b9 f7 37 f2 45 03 38 96 82 1e 38
       0.000112098256 2.9530987e-05 3.1297976e-05 3.7791753e-05
000060 1a b5 1c 37 cd 9e 1a 37 3b b6 1b 37
       9.340491e-06 9.216089e-06 9.281149e-06

exp_avg f4 [3]
000000 3a f9 62 b8 2f c6 d4 b8 f1 e8 d8 b8
       -5.411471e-05 -0.00010145862 -0.00010343071

exp_avg_sq f4 [3]
000000 3c 69 78 38 2f 81 1b 38 16 80 06 39
       5.9225815e-05 3.707519e-05 0.00012826952

exp_avg f4 [3, 3, 3]
000000 97 c8 f5 39 b6 69 00 3a 1e 58 50 b7 6b 2e 5f b9
       0.00046879493 0.00048985647 -1.24182825e-05 -0.0002128423
000010 c3 a4 a8 b8 3d f5 5a b9 78 d1 d8 39 91 07 e7 39
       -8.0415535e-05 -0.00020881458 0.00041354797 0.0004406539
000020 b7 2c 76 39 8e 43 ca b7 0c f1 1e 36 06 b2 95 38
       0.00023477046 -2.4111734e-05 2.3684142e-06 7.138033e-05
000030 6a 8d a5 38 89 bb 1f 38 eb b4 03 39 d1 10 33 38
       7.8941535e-05 3.808321e-05 0.00012560531 4.2692587e-05
000040 ac 74 0b 37 69 85 a1 37 fe 12 2b b5 91 77 0c 35
       8.31221e-06 1.925482e-05 -6.37301e-07 5.2328056e-07
000050 2f c7 2b b7 40 6d b3 b4 e6 4a a0 b6 6c 64 02 38
       -1.023877e-05 -3.3420838e-07 -4.777091e-06 3.108794e-05
000060 a0 b5 ab 36 c0 dd 19 36 e7 fb 98 b6
       5.117341e-06 2.2927852e-06 -4.5592783e-06

exp_avg_sq f4 [3, 3, 3]
000000 f2 0e 2f 39 66 8e 4f 39 da 50 82 39 ed 88 04 37
       0.00016694868 0.00019794106 0.0002485577 7.899694e-06
000010 a5 b7 f1 36 bb 0e f6 36 71 cb 2e 38 94 00 4f 38
       7.2037387e-06 7.333086e-06 4.1674302e-05 4.9353184e-05
000020 bb 1e 79 38 f7 a4 ed 37 d8 3f a4 37 99 5d a2 38
       5.9394846e-05 2.832942e-05 1.9580053e-05 7.742196e-05
000030 95 f5 69 37 1c f0 3b 37 61 82 8f 37 84 1b 67 36
       1.3945061e-05 1.1201973e-05 1.710764e-05 3.4437699e-06
000040 e6 5b 7e 36 ef 72 33 36 3f 2a 6b 30 37 d1 2f 30
       3.7902441e-06 2.6739979e-06 8.555254e-10 6.396194e-10
000050 23 05 62 32 1d 59 c7 32 f9 43 43 33 4e 27 81 34
       1.3156099e-08 2.3207173e-08 4.5463796e-08 2.405672e-07
000060 92 11 90 31 ab 67 88 30 12 15 2f 30
       4.192949e-09 9.924767e-10 6.369457e-10

exp_avg f4 [3]
000000 40 e3 fa 37 cd d3 92 3a e2 1a 37 39
       2.9908144e-05 0.0011202038 0.00017462255

exp_avg_sq f4 [3]
000000 c1 7c d3 39 22 83 0b 3a ab 1a ac 36
       0.00040338005 0.00053219695 5.129104e-06

exp_avg f4 [3, 3, 3]
000000 b2 31 88 38 54 4b 3d 39 02 a0 c0 39 b7 f4 12 b9
       6.494242e-05 0.00018052506 0.0003674031 -0.00014014808
000010 94 fc 15 b9 54 46 07 ba 2a 78 1b 39 ea 90 7a 39
       -0.0001430384 -0.0005160321 0.00014826717 0.00023895843
000020 8f bd b9 b8 32 e4 fa 37 d7 8c 86 37 72 e6 9d 39
       -8.8567955e-05 2.9908584e-05 1.6039628e-05 0.0003011707
000030 68 a6 4c b8 6f 45 ca b8 94 22 6d b8 57 bd 6c 39
       -4.8792368e-05 -9.6450436e-05 -5.6537407e-05 0.00022577248
000040 36 a6 fd 38 eb 08 de 38 d8 9c a9 b8 66 b9 4c b8
       0.00012094939 0.00010587446 -8.0877624e-05 -4.8810056e-05
000050 f2 15 66 39 ba e3 98 39 e2 a5 c0 38 45 1d 08 b9
       0.00021942685 0.0002916137 9.1861715e-05 -0.00012980874
000060 df 68 29 38 d7 a6 a4 38 cb 8d 98 b8
       4.039041e-05 7.851206e-05 -7.274336e-05

exp_avg_sq f4 [3, 3, 3]
000000 c6 80 f7 36 0e bb 1f 37 b3 0f db 37 da db f9 36
       7.376165e-06 9.520691e-06 2.6114145e-05 7.4463724e-06
000010 0c 0f 01 37 56 9a 20 37 1c 10 78 36 53 0b 8e 36
       7.692503e-06 9.572677e-06 3.6964257e-06 4.233248e-06
000020 de 7f ab 36 2d 46 bb 36 4f de 10 37 df 31 28 37
       5.111083e-06 5.581204e-06 8.634829e-06 1.0025192e-05
000030 63 3c 08 36 f6 be 89 36 c9 26 01 37 fb bf 97 36
       2.030073e-06 4.105149e-06 7.69803e-06 4.5225e-06
000040 e9 94 cd 36 08 05 94 36 29 d9 45 38 ba 06 83 38
       6.1268115e-06 4.4113294e-06 4.7170706e-05 6.24782e-05
000050 69 85 c5 38 8b 98 a9 37 d7 1b bf 37 dc f5 0f 38
       9.4185416e-05 2.0217403e-05 2.2781938e-05 3.432283e-05
000060 04 5b a6 37 9c ca c7 37 e2 f8 f6 37
       1.9831125e-05 2.3816996e-05 2.944138e-05

exp_avg f4 [3]
000000 0b cf b4 39 5e 27 10 b9 d2 08 34 39
       0.00034486534 -0.00013747576 0.00017169424

exp_avg_sq f4 [3]
000000 ca f6 c7 37 b0 87 a0 37 85 16 2b 39
       2.3837569e-05 1.913667e-05 0.0001631622

exp_avg f4 [3, 3, 3]
000000 de 58 94 37 83 87 a9 39 5f e1 b5 38 ff b9 27 b8
       1.7684357e-05 0.00032335156 8.672731e-05 -3.9989125e-05
000010 10 1a d7 38 c8 21 79 b9 d2 e5 11 39 a3 a1 ab 39
       0.000102568534 -0.00023759075 0.00013913892 0.0003273609
000020 f0 5f ea 38 13 94 bb b7 a3 2e 7a b7 96 5d 94 38
       0.00011175859 -2.236109e-05 -1.491202e-05 7.074622e-05
000030 2d e4 ca 38 30 9c 4c 39 65 66 e2 38 2d d6 fc 37
       9.674612e-05 0.0001951314 0.00010795592 3.0140474e-05
000040 4b 36 ca 37 d5 16 24 b8 f6 cf bb 35 4f 44 da 37
       2.4105559e-05 -3.912191e-05 1.399311e-06 2.6019434e-05
000050 16 61 a7 37 22 45 49 37 7b 8a 5e b6 21 df 31 b6
       1.995316e-05 1.199663e-05 -3.3161184e-06 -2.6504933e-06
000060 97 8c 02 38 8e 2d f8 36 ac 84 1a 37
       3.112535e-05 7.396279e-06 9.210005e-06

exp_avg_sq f4 [3, 3, 3]
000000 db e2 c3 37 fa 52 23 38 00 8d c6 38 e8 2a 00 37
       2.335145e-05 3.8939506e-05 9.467639e-05 7.639384e-06
000010 36 50 25 37 74 cf 2e 37 85 7f f4 37 50 7c 15 38
       9.853442e-06 1.041951e-05 2.9146448e-05 3.5640143e-05
000020 05 2f 11 38 64 cc e8 36 8b e3 03 36 a3 20 76 37
       3.4614484e-05 6.937933e-06 1.9652969e-06 1.4670341e-05
000030 d4 cd bd 38 df 86 f4 38 4c 2e 03 39 e0 3b 1d 37
       9.050561e-05 0.00011659948 0.0001251038 9.37187e-06
000040 fd 90 31 37 50 e2 33 37 32 45 14 34 4e 9b 06 36
       1.058378e-05 1.0721924e-05 1.3808747e-07 2.0057955e-06
000050 05 28 a3 36 0f 26 c6 36 df eb 96 34 84 97 77 37
       4.8624374e-06 5.9052904e-06 2.8111296e-07 1.4757625e-05
000060 43 af b9 35 c1 bd 78 35 84 e5 4c 35
       1.3834582e-06 9.266333e-07 7.632991e-07

exp_avg f4 [3]
000000 5a 57 00 b8 b1 cd 87 3a 47 30 23 39
       -3.059893e-05 0.0010360983 0.00015562876

exp_avg_sq f4 [3]
000000 08 df 20 39 53 e9 02 3a 7f 5b 05 39
       0.00015341875 0.00049938745 0.00012717953

exp_avg f4 [3, 3, 3]
000000 3e 4e c5 b8 50 00 98 b9 55 7d 3a 38 a6 ec d8 b8
       -9.408266e-05 -0.00028991932 4.446258e-05 -0.00010343762
000010 4c 95 09 ba 65 3d bd ba 79 6b 1d 39 f2 0c a1 39
       -0.0005248382 -0.0014437853 0.00015012723 0.00030717958
000020 f7 c9 7c b8 e8 3f 22 ba 31 54 8a b9 f2 a4 36 39
       -6.0269576e-05 -0.00061893323 -0.0002638414 0.0001741832
000030 fa 04 e9 39 86 8b f7 b8 ac 88 dc ba b5 a1 08 ba
       0.0004444493 -0.00011803866 -0.0016825399 -0.00052120845
000040 e2 ab 31 b8 86 47 39 ba 51 57 78 b9 40 1c 36 b9
       -4.2360167e-05 -0.0007067848 -0.00023683651 -0.00017367397
000050 71 38 9a 39 b0 e4 4c 39 4b 57 87 38 4c df 0d ba
       0.0002941522 0.00019540149 6.453561e-05 -0.0005411997
000060 70 ea 82 b9 5e 6d bd 39 74 1c 28 39
       -0.00024970202 0.00036130374 0.00016032328

exp_avg_sq f4 [3, 3, 3]
000000 54 dd fe 37 5b 48 36 38 5b 74 31 38 b7 05 f3 36
       3.0382223e-05 4.3459568e-05 4.2308453e-05 7.2426296e-06
000010 99 65 9c 37 08 8d 89 38 99 0e 04 37 29 a6 fd 36
       1.864396e-05 6.558938e-05 7.871212e-06 7.559331e-06
000020 bf c0 8c 37 a6 f1 2b 39 e7 f1 f1 39 98 57 71 3a
       1.6779055e-05 0.00016397852 0.00046147333 0.0009206473
000030 b8 3f 35 38 ca 2d 5a 38 e7 f2 2a 39 4f 01 00 39
       4.3213106e-05 5.2017895e-05 0.00016302952 0.00012207519
000040 51 a3 16 39 d7 be 46 39 3d d8 da 37 d8 9f 99 38
       0.00014365955 0.00018953845 2.6088319e-05 7.325382e-05
000050 fa 8e 52 39 e8 7e 40 36 c1 e4 e7 36 0f a0 6e 37
       0.00020080424 2.8684099e-06 6.910967e-06 1.4223172e-05
000060 2d 75 ce 37 a6 c0 24 37 a9 5d bb 36
       2.4611678e-05 9.820016e-06 5.5839378e-06

exp_avg f4 [3]
000000 c6 ae 48 3a 8c b2 c7 3a db 31 83 38
       0.0007655438 0.0015235706 6.255853e-05

exp_avg_sq f4 [3]
000000 f0 0e 37 39 cf 9f d7 3a 15 df 8a 39
       0.00017457805 0.0016450825 0.0002648762

exp_avg f4 [1, 3, 3]
000000 f6 38 b2 39 42 be 6d 38 7f 22 bc ba 86 42 1f ba
       0.00033993245 5.6682395e-05 -0.0014353542 -0.00060752814
000010 75 cb 8b b9 3f 2b 25 bb cc 7e 8a 36 0e 56 bd 39
       -0.00026663733 -0.0025202779 4.1274816e-06 0.00036113005
000020 76 22 8e b9
       -0.00027110026

exp_avg_sq f4 [1, 3, 3]
000000 33 c8 c6 38 90 82 f1 39 52 4c ad 3a 3a 0b 01 3b
       9.478666e-05 0.0004606438 0.0013221598 0.001969053
000010 29 26 90 3b cb 7b d1 3b ce 81 aa 37 6b 30 c9 38
       0.0043990803 0.006392931 2.0326024e-05 9.5934454e-05
000020 c3 c2 5f 39
       0.00021339492

exp_avg f4 [1, 3, 1]
000000 a8 67 83 bb 60 b2 cb bb 3b 3f eb 3a
       -0.0040101595 -0.0062163323 0.0017947921

exp_avg_sq f4 [1, 3, 1]
000000 ea ac 58 3c 04 5a 56 3b c0 01 b2 3a
       0.01322482 0.0032707462 0.0013580844
