benchmarks/.darts/checkpoints/torch_model_run/checkpoint_96.pth.tar (torch, 59591 bytes, 54 tensors)

weight f4 [3, 1, 3]
-0.15787932 0.27501598 -0.03317407 -0.16122912 -0.030784544 0.41717482 0.2951413 0.4244827
-0.31057894
00000000: 1eab 21be e5ce 8c3e 89e1 07bd 3f19 25be
00000010: de2f fcbc f097 d53e c31c 973e cc55 d93e
00000020: 3404 9fbe

bias f4 [3]
0.035314634 -0.13842785 -0.48353302
00000000: 14a6 103d 08c0 0dbe a491 f7be

weight f4 [3, 3, 3]
0.09602567 0.27374107 0.15019399 -0.32498115 2.588188e-05 -0.08481232 -0.30672118 0.1092285
0.06751952 0.063899785 0.06408377 0.16008174 -0.026337694 0.09264182 0.22994755 -0.012366032
0.058898613 0.31210995 0.09558998 0.14192604 -0.049580846 -0.045071762 0.16548617 0.028250169
0.32411876 0.15714924 -0.09787784
00000000: 1ba9 c43d ca27 8c3e 74cc 193e ee63 a6be
00000010: ea1c d937 15b2 adbd 8f0a 9dbe 31b3 df3d
00000020: ad47 8a3d e4dd 823d 5a3e 833d 78ec 233e
00000030: 26c2 d7bc ffba bd3d 5f77 6b3e e69a 4abc
00000040: ac3f 713d e0cc 9f3e aec4 c33d 0f55 113e
00000050: 4915 4bbd 2b9d 38bd 3575 293e e66c e73c
00000060: e5f2 a53e bbeb 203e 2d74 c8bd

bias f4 [3]
-0.21237138 -0.022484466 -0.00923968
00000000: e277 59be 5831 b8bc 0762 17bc

weight f4 [3, 1, 1]
-0.031344593 0.89489555 -0.44062346
00000000: 3063 00bd e017 653f 6699 e1be

bias f4 [3]
-0.5494656 -0.67750657 -0.62408745
00000000: c7a9 0cbf 1271 2dbf 32c4 1fbf

weight f4 [3, 3, 3]
-0.20934772 0.26876402 -0.3012013 0.20539273 -0.13224606 -0.36210668 0.27884796 0.03630821
0.47175643 0.35613602 0.22214042 5.012528e-05 0.22996725 -0.1725613 -0.332746 -0.36057544
0.025614329 0.07323719 -0.13851716 -0.23043042 -0.0713655 -0.13229933 0.03154006 -0.28764674
0.039167482 0.14283895 0.32207865
00000000: 405f 56be 709b 893e 0f37 9abe 7952 523e
00000010: 836b 07be 0c66 b9be 29c5 8e3e ebb7 143d
00000020: 0f8a f13e 7657 b63e c778 633e 9c3d 5238
00000030: 897c 6b3e e9b3 30be af5d aabe 589d b8be
00000040: 24d5 d13c 61fd 953d 71d7 0dbe f4f5 6bbe
00000050: 1328 92bd 7a79 07be 2630 013d 6f46 93be
00000060: 156e 203d 6044 123e 7ee7 a43e

bias f4 [3]
0.31384304 0.21187454 0.060884014
00000000: 09b0 a03e a4f5 583e 8461 793d

weight f4 [3, 3, 3]
0.047495283 0.22885904 0.28012046 -0.06837179 0.059001822 0.31032228 0.022100382 0.14429092
0.28544852 -0.059395716 -0.37500498 -0.050608553 -0.12435685 -0.3075773 -0.20719692 0.049834132
-0.13586994 -0.48773208 -0.17141257 -0.39757645 -0.09612976 -0.09822208 -0.18554088 -0.0927418
0.013040172 -0.23746376 -0.5448217
00000000: 6a8a 423d 065a 6a3e f36b 8f3e 8206 8cbd
00000010: e5ab 713d 90e2 9e3e dc0b b53c 00c1 133e
00000020: 4f26 923e ec48 73bd a700 c0be ea4a 4fbd
00000030: ceae febd c67a 9dbe 6e2b 54be e01e 4c3d
00000040: 7d21 0bbe 05b8 f9be c786 2fbe 248f cbbe
00000050: aedf c4bd a828 c9bd 6efe 3dbe 6aef bdbd
00000060: 72a6 553c b329 73be 6f79 0bbf

bias f4 [3]
-0.00040474764 0.09111175 0.09428468
00000000: 4f34 d4b9 cc98 ba3d 5418 c13d

weight f4 [3, 3, 3]
0.0013664643 0.0774478 -0.73728216 0.01867088 0.17375228 -0.4793095 -0.236064 0.35336542
0.6516852 -0.096511744 -0.05899446 -0.36539093 0.01211333 -0.050500594 -0.048810918 0.16287653
-0.050406255 0.4181827 -0.058336638 -0.1811308 -0.016136745 0.16681401 0.14929143 -0.3680528
-0.07516034 -0.027724931 0.31874472
00000000: ef1a b33a f49c 9e3d 86be 3cbf acf3 983c
00000010: 1eec 313e 0e68 f5be c3ba 71be 50ec b43e
00000020: d7d4 263f f3a7 c5bd 2da4 71bd 8514 bbbe
00000030: fd76 463c b6d9 4ebd f5ed 47bd 1bc9 263e
00000040: ca76 4ebd 0b1c d63e 66f2 6ebd 5a7a 39be
00000050: 3531 84bc 4bd1 2a3e dadf 183e 6b71 bcbe
00000060: aaed 99bd 651f e3bc 8232 a33e

bias f4 [3]
0.26033863 0.2445165 0.25357214
00000000: 1b4b 853e 8962 7a3e 35d4 813e

weight f4 [3, 3, 3]
-0.06903746 0.026140193 0.6210617 -0.043086916 0.022891786 0.3857998 0.152989 0.27104685
0.2258319 -0.08030651 -0.36958253 -0.22589125 0.16624726 0.18758461 -0.29011527 -0.11767744
-0.22854583 -0.31118777 -0.19863851 -0.023430534 -0.07155681 0.032152303 -0.30574617 -0.13148868
0.02068623 -0.1470208 -0.24682656
00000000: 8363 8dbd f523 d63c e6fd 1e3f e87b 30bd
00000010: 8e87 bb3c 8d87 c53e 26a9 1c3e a7c6 8a3e
00000020: 7a40 673e bd77 a4bd ec39 bdbe 0950 67be
00000030: b93c 2a3e 2e16 403e fd89 94be df00 f1bd
00000040: eb07 6abe 0154 9fbe e567 4bbe 64f1 bfbc
00000050: 608c 92bd 22b2 033d c38a 9cbe f8a4 06be
00000060: 2b76 a93c 9f8c 16be 1ac0 7cbe

bias f4 [3]
-0.14272478 0.06678845 0.04757593
00000000: 7226 12be 62c8 883d fade 423d

weight f4 [3, 3, 3]
-0.016114062 -0.08957505 -0.41897392 -0.012445517 0.036116958 -0.25540894 0.0868795 -0.07251082
0.586927 -0.07575717 0.04253102 -0.3361179 0.06465306 0.11025193 -0.24026823 -0.067318
0.08635425 0.19206661 0.11881744 0.0077727637 -0.286201 0.044343494 0.05542658 -0.250043
-0.1118469 -0.08621535 0.22517902
00000000: a301 84bc 2073 b7bd c083 d6be 48e8 4bbc
00000010: 60ef 133d f6c4 82be e1ed b13d 8e80 94bd
00000020: d940 163f 9326 9bbd 0235 2e3d a517 acbe
00000030: d368 843d c4cb e13d e008 76be 05de 89bd
00000040: 7fda b03d 1cad 443e 8f56 f33d abb2 fe3b
00000050: f088 92be 86a1 353d fb06 633d a305 80be
00000060: fd0f e5bd ac91 b0bd 5495 663e

bias f4 [3]
0.20558311 0.18919104 -0.0026314596
00000000: 6184 523e 4cbb 413e 9174 2cbb

weight f4 [1, 3, 3]
0.03162385 0.027909465 -0.3273589 -0.06809486 -0.073024936 -0.21005544 -0.061669536 0.014373519
-0.24522701
00000000: 0388 013d 64a2 e43c 969b a7be 5175 8bbd
00000010: 198e 95bd c618 57be 3299 7cbd e97e 6b3c
00000020: ca1c 7bbe

weight f4 [1, 3, 1]
-0.34965923 0.71015495 -0.07618174
00000000: 8906 b3be b7cc 353f 2c05 9cbd

exp_avg f4 [3, 1, 3]
7.31304e-05 6.689384e-05 -2.315113e-05 -7.30163e-05 -5.0516534e-05 -0.0001042653 0.00012942927 0.00010055803
7.061017e-05
00000000: 965d 9938 5b49 8c38 ac34 c2b7 5420 99b8
00000010: b7e1 53b8 02a9 dab8 68b7 0739 aee2 d238
00000020: 8c14 9438

exp_avg_sq f4 [3, 1, 3]
3.473393e-05 4.5879686e-05 6.064582e-05 1.9265535e-06 1.8083061e-06 2.2467366e-06 7.2682724e-06 7.938356e-06
1.12851085e-05
00000000: 46af 1138 f06e 4038 f45d 7e38 f049 0136
00000010: edb4 f235 a4c6 1636 fce1 f336 fb2e 0537
00000020: 2c55 3d37

exp_avg f4 [3]
8.671622e-05 -0.00010446899 8.802242e-05
00000000: 6bdb b538 5d16 dbb8 ad98 b838

exp_avg_sq f4 [3]
0.00032795165 1.0583559e-05 1.2681646e-05
00000000: edf0 ab39 0a90 3137 41c3 5437

exp_avg f4 [3, 3, 3]
4.06044e-37 1.907021e-37 1.8731144e-37 6e-45 3.0371404e-37 -6e-45 6e-45 2.956616e-37
2.9475443e-37 -4.890682e-05 -0.000109728906 8.54614e-05 -0.00015700955 -8.074252e-05 -9.7792006e-05 4.8879152e-05
2.5090802e-05 3.050237e-05 3.7294867e-06 4.248414e-05 -1.4610502e-05 5.967345e-05 6.727654e-05 6.456381e-05
1.4469704e-05 1.8549612e-05 1.3942991e-05
00000000: 6c2b 0a03 fec8 8102 83f4 7e02 0400 0000
00000010: 73b2 ce02 0400 0080 0400 0000 8437 c902
00000020: 7799 c802 4c21 4db8 421e e6b8 bd39 b338
00000030: eea2 24b9 4f54 a9b8 af15 cdb8 9703 4d38
00000040: 167a d237 57df ff37 1848 7a36 ff30 3238
00000050: a11f 75b7 e149 7a38 d116 8d38 6e66 8738
00000060: e8c2 7237 fd9a 9b37 b1ec 6937

exp_avg_sq f4 [3, 3, 3]
2.9762612e-05 4.155173e-05 3.6222773e-05 2.587674e-07 3.6732297e-06 2.9667906e-06 4.23735e-07 8.8237704e-07
1.0478749e-06 0.00014924727 0.00016185267 0.00017948815 5.0463677e-05 5.478192e-05 6.000998e-05 6.228134e-06
6.8699733e-06 7.5972853e-06 7.9018115e-08 1.05364514e-07 7.8835505e-08 3.517859e-06 4.150739e-06 3.6300964e-06
1.130652e-06 1.1206129e-06 1.0992094e-06
00000000: b9aa f937 d547 2e38 e8ed 1738 b8ec 8a34
00000010: 9b81 7636 1319 4736 b27d e334 7ddc 6c35
00000020: b5a4 8c35 427f 1c39 ffb6 2939 fc34 3c39
00000030: f6a8 5338 a4c5 6538 3ab3 7b38 44fb d036
00000040: 9f84 e636 2fec fe36 abb0 a933 c144 e233
00000050: 474c a933 5c14 6c36 9446 8b36 959c 7336
00000060: e8c0 9735 f767 9635 8c88 9335

exp_avg f4 [3]
7.9872775e-37 -0.0006311629 0.00011323193
00000000: 80e5 8703 a074 25ba ee76 ed38

exp_avg_sq f4 [3]
5.0089577e-05 0.0017691995 6.905301e-06
00000000: 4617 5238 7ce4 e73a 15b4 e736

exp_avg f4 [3, 1, 1]
0.0035346057 -0.0052151633 -0.00034511852
00000000: d8a4 673b f6e3 aabb 06f1 b4b9

exp_avg_sq f4 [3, 1, 1]
0.0011922303 0.0015816183 0.00018365392
00000000: 9c44 9c3a 4e4e cf3a 3993 4039

exp_avg f4 [3]
-0.00097621075 2.560942e-05 0.0005218748
00000000: 65e8 7fba d0d3 d637 6dce 083a

exp_avg_sq f4 [3]
0.0035056968 0.0014286757 0.0010653144
00000000: d5bf 653b 6742 bb3a 05a2 8b3a

exp_avg f4 [3, 3, 3]
3.5185636e-05 -2.4805506e-05 -8.719213e-07 -0.0004415257 -0.00039145714 -0.00012659223 0.00024958464 0.0001279862
5.2521864e-05 -7.4821764e-05 -0.0001487313 -7.408194e-05 -0.00039978468 -0.00030674893 -8.041825e-05 3.254262e-05
-0.00012783615 -0.000106441024 -1.1207564e-05 -3.988155e-05 2.6342755e-06 -0.00047205776 -0.00035940175 -7.534378e-05
0.00018471951 8.8702844e-05 3.682224e-05
00000000: 4a94 1338 6b15 d0b7 fa0d 6ab5 947c e7b9
00000010: 7d3c cdb9 d8bd 04b9 afda 8239 0934 0639
00000020: ec4a 5c38 a1e9 9cb8 c1f4 1bb9 705c 9bb8
00000030: 319a d1b9 25d3 a0b9 38a6 a8b8 5f7e 0838
00000040: c10b 06b9 1739 dfb8 1f08 3cb7 7d46 27b8
00000050: 82c8 3036 857e f7b9 166e bcb9 e201 9eb8
00000060: 44b1 4139 fa05 ba38 9471 1a38

exp_avg_sq f4 [3, 3, 3]
4.2670337e-05 4.7412865e-05 4.9736853e-05 1.634913e-05 1.4541894e-05 1.5503047e-05 5.8305764e-06 6.2170284e-06
6.119662e-06 1.8661689e-05 2.2215236e-05 2.467022e-05 5.8746555e-06 7.101114e-06 7.5850116e-06 5.5102228e-06
5.852959e-06 6.157177e-06 9.018861e-05 0.00010044629 0.00010954875 2.8866183e-05 3.059087e-05 3.693432e-05
9.129093e-06 9.007047e-06 9.07065e-06
00000000: edf8 3238 2ddd 4638 8a9c 5038 7d25 8937
00000010: f6f8 7337 8a0c 8237 45a4 c336 de9b d036
00000020: 7f57 cd36 ac8b 9c37 db5a ba37 e5f2 ce37
00000030: e81e c536 1b46 ee36 c182 fe36 74e4 b836
00000040: 8964 c436 bf99 ce36 a423 bd38 b1a6 d238
00000050: 8abd e538 a825 f237 b24e 0038 ede9 1a38
00000060: 2829 1937 f91c 1737 252e 1837

exp_avg f4 [3]
8.95146e-06 0.00013180445 -1.18675416e-07
00000000: 3a2e 1637 fd34 0a39 80da feb3

exp_avg_sq f4 [3]
5.7881272e-05 3.624496e-05 0.00012535347
00000000: 8bc5 7238 bb05 1838 5171 0339

exp_avg f4 [3, 3, 3]
0.00033257168 0.0004689598 -6.584979e-05 -0.00020073247 -3.3231692e-05 -0.00017279452 0.00030231834 0.0003189037
0.00021507549 -3.9958617e-05 7.719909e-06 0.00020188159 1.9865043e-05 -9.545635e-06 6.879224e-05 -7.658845e-06
-1.0139714e-05 2.4119013e-06 1.0332699e-06 -2.357857e-06 -1.2986186e-05 6.58656e-06 2.1259988e-05 5.5912227e-05
9.724331e-07 -2.2361439e-07 -2.7725466e-06
00000000: 045d ae39 b8de f539 d618 8ab8 b67b 52b9
00000010: 4262 0bb8 2d30 35b9 7b80 9e39 8832 a739
00000020: e385 6139 3d99 27b8 c284 0137 2db0 5339
00000030: dba3 a637 3126 20b7 8d44 9038 7d7e 00b7
00000040: bd1d 2ab7 26dc 2136 e2ae 8a35 ad3b 1eb6
00000050: 3fdf 59b7 1f02 dd36 7a57 b237 4c83 6a38
00000060: 8c84 8235 a81a 70b4 fd0f 3ab6

exp_avg_sq f4 [3, 3, 3]
0.00016315521 0.00019344516 0.00024290614 7.721827e-06 7.0405367e-06 7.16739e-06 4.073046e-05 4.823542e-05
5.8047004e-05 2.7685086e-05 1.9134643e-05 7.5662305e-05 1.3628428e-05 1.094735e-05 1.6719418e-05 3.365786e-06
3.7040952e-06 2.6131763e-06 8.387077e-10 6.25976e-10 1.295618e-08 2.276332e-08 4.4516803e-08 2.354449e-07
4.1248702e-09 9.766664e-10 6.24655e-10
00000000: a514 2b39 8ad7 4a39 9fb4 7e39 ff8c 0137
00000010: c03d ec36 697f f036 00d6 2a38 6350 4a38
00000020: 7f77 7338 453d e837 5583 a037 e4ac 9e38
00000030: a7a5 6437 83aa 3737 ad40 8c37 c3df 6136
00000040: df93 7836 075e 2f36 cf8a 6630 2511 2c30
00000050: e295 5e32 1289 c332 be32 3f33 9ace 7c34
00000060: beba 8d31 653b 8630 30b4 2b30

exp_avg f4 [3]
8.995532e-06 0.00053142174 0.000272398
00000000: 84eb 1637 1c4f 0b3a a4d0 8e39

exp_avg_sq f4 [3]
0.00039421496 0.00052022614 5.024486e-06
00000000: a3ae ce39 c95f 083a 0298 a836

exp_avg f4 [3, 3, 3]
-2.9529432e-05 1.2894e-05 0.00027113932 -0.00016307384 -0.0001404958 -0.00053023925 2.636017e-05 0.00010455736
-0.00023720223 -4.6017863e-05 -8.535951e-05 0.00024972975 -5.027017e-05 -1.5374213e-05 9.496977e-05 0.00015172221
2.5803054e-05 -5.767684e-05 -6.419941e-05 -9.8282326e-05 0.00018954923 0.00019127256 -4.1765932e-05 -0.00028844658
5.3310334e-05 4.6777248e-05 -0.00014107791
00000000: f9b5 f7b7 4f53 5837 b427 8e39 cdfe 2ab9
00000010: 0e52 13b9 c1ff 0aba 0920 dd37 ce45 db38
00000020: 7db9 78b9 4e03 41b8 0a03 b3b8 29ee 8239
00000030: 2fd9 52b8 dff7 80b7 822a c738 9f17 1f39
00000040: a373 d837 09ea 71b8 cca2 86b8 ec1c ceb8
00000050: bcc1 4639 5690 4839 d42d 2fb8 a53a 97b9
00000060: 8999 5f38 b032 4438 50ee 13b9

exp_avg_sq f4 [3, 3, 3]
7.208799e-06 9.304667e-06 2.5523334e-05 7.279514e-06 7.5204207e-06 9.365114e-06 3.6141073e-06 4.139115e-06
4.998021e-06 5.4550496e-06 8.43918e-06 9.799182e-06 1.987332e-06 4.014922e-06 7.525749e-06 4.4210396e-06
5.989374e-06 4.3139626e-06 4.6099085e-05 6.105906e-05 9.204566e-05 1.9760571e-05 2.226708e-05 3.3548466e-05
1.9385074e-05 2.3281693e-05 2.8778231e-05
00000000: 1de3 f136 3e1b 1c37 f11a d637 8d42 f436
00000010: ec57 fc36 dc1e 1d37 e489 7236 bae2 8a36
00000020: acb4 a736 850a b736 0196 0d37 2b67 2437
00000030: 1b5e 0536 ebb7 8636 b185 fc36 7158 9436
00000040: 55f8 c836 a8c0 9036 845a 4138 d50c 8038
00000050: a308 c138 81c3 a537 31ca ba37 64b6 0c38
00000060: 219d a237 0e4d c337 c868 f137

exp_avg f4 [3]
0.00050436135 -1.6438244e-05 0.00031332648
00000000: 1e37 043a dce4 89b7 f845 a439

exp_avg_sq f4 [3]
2.3305822e-05 1.870726e-05 0.00015946348
00000000: df80 c337 89ed 9c37 a735 2739

exp_avg f4 [3, 3, 3]
5.4468208e-05 0.0002430281 6.11634e-05 1.396495e-05 9.931229e-05 -0.00024050547 0.00012861405 0.00033441192
0.00023729891 -0.00011180431 -6.2986505e-06 4.894615e-05 2.377043e-06 0.00010575196 6.674151e-05 -7.063464e-05
8.529372e-06 -3.6867237e-05 2.2989138e-06 4.0115498e-05 3.360007e-05 2.2501796e-05 -1.2199265e-06 1.1936505e-05
7.549275e-05 9.455978e-06 9.29175e-06
00000000: cb74 6438 5cd5 7e39 da44 8038 014b 6a37
00000010: e145 d038 3230 7cb9 92dc 0639 0254 af39
00000020: 71d3 7839 7b78 eab8 ff58 d3b6 874b 4d38
00000030: 4a85 1f36 27c7 dd38 93f7 8b38 af21 94b8
00000040: 6019 0f37 e5a1 1ab8 0a47 1a36 b041 2838
00000050: cded 0c38 3dc2 bc37 5bbc a3b5 e642 4837
00000060: dd51 9e38 1ea5 1e37 c3e3 1b37

exp_avg_sq f4 [3, 3, 3]
2.2821263e-05 3.8057788e-05 9.2524504e-05 7.4658246e-06 9.6299345e-06 1.0184311e-05 2.8485063e-05 3.4833956e-05
3.383033e-05 6.7813453e-06 1.9206143e-06 1.433673e-05 8.844781e-05 0.00011394775 0.00012225822 9.159243e-06
1.0343152e-05 1.0478281e-05 1.3494817e-07 1.9602303e-06 4.751918e-06 5.7710454e-06 2.747235e-07 1.4421943e-05
1.3522235e-06 9.055594e-07 7.4593885e-07
00000000: 4a70 bf37 3da0 1f38 b709 c238 f282 fa36
00000010: 4190 2137 48dd 2a37 35f3 ee37 ad1a 1238
00000020: 0ae5 0d38 508b e336 e7e3 0036 c987 7037
00000030: 0e7d b938 3cf7 ee38 7132 0039 a6aa 1937
00000040: 8087 2d37 e0cb 2f37 45e6 1034 808c 0336
00000050: aa72 9f36 e7a4 c136 b67d 9334 c6f5 7137
00000060: 0c7e b535 9115 7335 873c 4835

exp_avg f4 [3]
0.0001563984 0.00011199611 0.00032998537
00000000: e0fe 2339 74df ea38 e301 ad39

exp_avg_sq f4 [3]
0.00014994261 0.00048813887 0.0001242919
00000000: ea39 1d39 e4ec ff39 5a54 0239

exp_avg f4 [3, 3, 3]
-0.00013101607 -0.00029957845 4.7203106e-05 0.0001008315 -0.00025639264 -0.00081148266 0.00021149947 0.0004571519
0.00028060577 -0.0005308524 -0.00030555102 9.2898976e-05 0.00038383002 6.9779e-05 -0.0012265996 -0.00040200423
-1.708563e-05 -0.0006495519 -0.00010177867 -0.00013145973 0.00027290985 3.914338e-05 7.6580574e-05 -0.000282701
-0.00016028248 0.0004506401 0.00032446164
00000000: 5c61 09b9 bd10 9db9 f3fb 4538 8075 d338
00000010: 706c 86b9 aeb9 54ba f5c5 5d39 e4ad ef39
00000020: 451e 9339 e728 0bba 5d32 a0b9 c2d2 c238
00000030: cb3c c939 5156 9238 dac5 a0ba 18c4 d2b9
00000040: 1c53 8fb7 b146 2aba 0272 d5b8 74d8 09b9
00000050: 5715 8f39 e22d 2438 e299 a038 7c37 94b9
00000060: 8011 28b9 e443 ec39 811c aa39

exp_avg_sq f4 [3, 3, 3]
2.9695397e-05 4.247538e-05 4.1357005e-05 7.0885576e-06 1.8235018e-05 6.414567e-05 7.7006935e-06 7.3981755e-06
1.6404756e-05 0.00016025633 0.00045097966 0.00089971186 4.2238247e-05 5.0847422e-05 0.00015940153 0.00011930885
0.00014040356 0.00018525172 2.5497644e-05 7.1590104e-05 0.00019624435 2.808587e-06 6.7607803e-06 1.3919356e-05
2.4057359e-05 9.608751e-06 5.467203e-06
00000000: 611a f937 9827 3238 bf76 2d38 3fda ed36
00000010: 67f7 9837 f285 8638 3a32 0137 d83d f836
00000020: f29c 8937 7b0a 2839 7771 ec39 a4da 6b3a
00000030: f928 3138 0145 5538 0625 2739 7335 fa38
00000040: 4b39 1339 2140 4239 c6e3 d537 a522 9638
00000050: f1c6 4d39 287b 3c36 a9da e236 2e87 6937
00000060: c9ce c937 4535 2137 eb72 b736

exp_avg f4 [3]
8.669857e-05 0.0012506734 -0.00022984168
00000000: f1d1 b538 a3ed a33a a801 71b9

exp_avg_sq f4 [3]
0.00017063115 0.0016077339 0.0002588712
00000000: 73eb 3239 99ba d23a 1bb9 8739

exp_avg f4 [1, 3, 3]
0.00034776324 0.0001128924 -0.0011062545 -0.0003787869 -2.0265341e-05 -0.0020742468 3.6708105e-05 0.0004950394
-0.00014202218
00000000: fe53 b639 a5c0 ec38 beff 90ba eb97 c6b9
00000010: 7dff a9b7 16f0 07bb 07f7 1938 88c5 013a
00000020: caeb 14b9

exp_avg_sq f4 [1, 3, 3]
9.263655e-05 0.00045017098 0.0012921315 0.0019242724 0.0042990204 0.0062476583 1.9866844e-05 9.3763796e-05
0.00020855047
00000000: de45 c238 ed04 ec39 bd5c a93a de37 fc3a
00000010: ccde 8c3b 28b9 cc3b b9a7 a637 0ea3 c438
00000020: 57ae 5a39

exp_avg f4 [1, 3, 1]
-0.0031670919 -0.007975919 0.002130268
00000000: fc8e 4fbb 6ead 02bc f79b 0b3b

exp_avg_sq f4 [1, 3, 1]
0.012924401 0.0031979193 0.0013276911
00000000: dec0 533c 2f94 513b ec05 ae3a
