benchmarks/.darts/checkpoints/torch_model_run/checkpoint_99.pth.tar (torch, 59591 bytes, 54 tensors)

weight f4 [3, 1, 3]
00000000: a2bb 22be bc42 8c3e f2f6 08bd c9a7 25be
00000010: 864a 09bd fcb5 d43e f304 953e 479d d73e
00000020: 8135 a0be
-0.15891889 0.27394664 -0.03343863 -0.16177286 -0.033518337 0.41545093 0.29105338 0.4211218
-0.3129082

bias f4 [3]
00000000: 7f1d 0e3d 8ed0 0ebe 72af f8be
0.0346961 -0.13946745 -0.48571354

weight f4 [3, 3, 3]
00000000: 1ba9 c43d ca27 8c3e 74cc 193e ee63 a6be
00000010: ea1c d937 15b2 adbd 8f0a 9dbe 31b3 df3d
00000020: ad47 8a3d 60f3 823d 40ad 833d 494b 233e
00000030: 85a3 d0bc 4708 be3d 9584 6b3e 63fa 5bbc
00000040: b94c 6e3d b660 9f3e 5dbe c73d 3e0b 0c3e
00000050: 565b 3cbd 9291 3ebd 4e14 283e cb3f db3c
00000060: 07a3 a53e c61b 203e a0f7 c9bd
0.09602567 0.27374107 0.15019399 -0.32498115 2.588188e-05 -0.08481232 -0.30672118 0.1092285
0.06751952 0.06394076 0.06429529 0.15946688 -0.025468597 0.092789225 0.22999795 -0.013426396
0.058178637 0.31128472 0.09753106 0.13676164 -0.045985542 -0.046525545 0.16413996 0.026763817
0.32350942 0.15635595 -0.09861684

bias f4 [3]
00000000: e277 59be 97ae b8bc dda2 17bc
-0.21237138 -0.022544188 -0.009255138

weight f4 [3, 1, 1]
00000000: 93e8 19bd 2fce 663f d2d2 dfbe
-0.037575316 0.9015836 -0.4371553

bias f4 [3]
00000000: ae55 0cbf a74c 2dbf 9726 20bf
-0.54818237 -0.6769509 -0.62558883

weight f4 [3, 3, 3]
00000000: 2808 57be 318e 893e 7e4c 9abe e3aa 593e
00000010: ffc2 00be 5427 b8be 1db0 8a3e 2a8f 013d
00000020: 294f f03e a59a b63e acb5 643e 8106 da38
00000030: 88fb 733e 6bb5 2abe 5ded a9be 7b9c b9be
00000040: 1647 dc3c a93b 963d 0fd0 0dbe dac2 6bbe
00000050: ba8d 92bd ef8d 01be af8f 123d 43e7 92be
00000060: 414a 0f3d f7fd 0f3e 9b04 a43e
-0.20999205 0.26866296 -0.30136484 0.21256594 -0.12574385 -0.35967505 0.2708749 0.031630673
0.46935394 0.3566486 0.22334927 0.000103962615 0.2382642 -0.16670768 -0.33188906 -0.36252198
0.026889365 0.07335598 -0.138489 -0.23023549 -0.071559384 -0.126518 0.03578156 -0.28692064
0.034982923 0.14061724 0.32034764

bias f4 [3]
00000000: d8c7 a03e f4e1 583e 2f91 7a3d
0.3140247 0.21179944 0.061173614

weight f4 [3, 3, 3]
00000000: 57f7 3a3d 4628 683e a266 8f3e 1361 83bd
00000010: 2b4a 7c3d d7d2 a03e c10b 9c3c e847 103e
00000020: 4e24 913e fc6d 72bd 8e0b c0be 779e 54bd
00000030: 8c36 00be 899f 9dbe b76b 55be 03cb 463d
00000040: 7863 0bbe a9f4 f9be 7eb7 2fbe 6486 c9be
00000050: 25be 99bd e054 d2bd 7c6a 41be 056a c8bd
00000060: a6e6 013c 476e 74be 4384 0abf
0.045646038 0.22671613 0.2800799 -0.06415 0.06159417 0.31410858 0.019048573 0.1408993
0.2834801 -0.05918692 -0.37508816 -0.051908936 -0.12520808 -0.30785778 -0.20841871 0.04853345
-0.13612163 -0.48819473 -0.1715984 -0.39360344 -0.0750697 -0.10270095 -0.18888277 -0.097858466
0.007928526 -0.23870192 -0.54108065

bias f4 [3]
00000000: 0a62 e0b9 3c0f b43d 9ca0 b73d
-0.00042797654 0.08791968 0.08966181

weight f4 [3, 3, 3]
00000000: 322b 3f3a 48ba 993d 5aea 3dbf 231d ac3c
00000010: ac31 343e 0214 f0be 9b7a 76be 2292 b13e
00000020: 65a4 273f 85e5 c5bd dcaf 6fbd 2979 bdbe
00000030: 0fd0 893c 0c12 41bd 31a2 44bd 465a 213e
00000040: 92d8 54bd 55de d63e db27 6cbd 6643 39be
00000050: 96e9 91bc 0b7e 273e 31f0 183e 3624 bbbe
00000060: daf9 9abd 14e1 ebbc 1bbf a33e
0.00072925084 0.075062335 -0.7418572 0.021009987 0.17597073 -0.46890265 -0.24070208 0.34681803
0.6548522 -0.09662918 -0.058517322 -0.370065 0.016822843 -0.04713635 -0.04800624 0.15757093
-0.05196435 0.419665 -0.057655197 -0.18092117 -0.017811578 0.16356675 0.14935376 -0.36551064
-0.07567187 -0.028793849 0.3198174

bias f4 [3]
00000000: 04e1 823e 92eb 793e 863b 813e
0.25562298 0.24406269 0.25240725

weight f4 [3, 3, 3]
00000000: 6b88 8dbd 9862 bf3c aee6 1e3f b6c7 2fbd
00000010: 475c ac3c 9e19 c83e 0adb 1a3e c314 893e
00000020: 3904 653e f599 a5bd 1145 bdbe b75e 68be
00000030: d885 293e bad2 3e3e dad1 94be 2791 f0bd
00000040: 12cc 6abe dcfa 9ebe 29e8 4bbe a43e cbbc
00000050: 1fbc 93bd ff2f 023d cd42 9cbe 16ac 06be
00000060: 224e 8c3c 724d 17be 0256 7dbe
-0.06910785 0.023362443 0.6207074 -0.04291507 0.021040095 0.39082044 0.1512262 0.26773652
0.22364892 -0.080860056 -0.36966756 -0.22692381 0.16554964 0.18635073 -0.29066354 -0.117464356
-0.22929409 -0.31050766 -0.19912781 -0.024810143 -0.072136156 0.031784054 -0.30519715 -0.13151583
0.0171271 -0.14775637 -0.2473984

bias f4 [3]
00000000: a39d 12be dcc1 823d 4f19 3e3d
-0.14317946 0.06384632 0.046410855

weight f4 [3, 3, 3]
00000000: e519 80bc 33a0 b1bd 73d5 d6be 0424 1cbc
00000010: b219 313d 51c6 7bbe 86ef a83d e464 a6bd
00000020: 6208 163f e207 96bd 2aed 303d 9d36 acbe
00000030: 4358 7d3d 283d e43d 1d48 6dbe 6572 84bd
00000040: 8599 b13d 1232 483e 444d f63d 61d9 133c
00000050: 4a0d 93be 2e08 3b3d 4207 6d3d 0232 75be
00000060: 7e69 ddbd d64a bbbd 4f9b 643e
-0.015637347 -0.08673134 -0.41959724 -0.009530071 0.043237396 -0.2458737 0.082488105 -0.08124712
0.5860654 -0.07325722 0.043194927 -0.33635417 0.06185175 0.11144477 -0.2317204 -0.064671315
0.0867186 0.1955035 0.12026456 0.009023995 -0.28721076 0.045662098 0.05786825 -0.23944858
-0.10811137 -0.09145133 0.2232487

bias f4 [3]
00000000: 12f5 4f3e b837 3f3e 3a5f 61bb
0.2030833 0.18673599 -0.0034389035

weight f4 [1, 3, 3]
00000000: fa03 f33c ba4b e53c 5c7d a6be 1af6 89bd
00000010: f912 95bd 980e 55be 88b9 7dbd ed17 3f3c
00000020: 8d7a 79be
0.029664982 0.02799021 -0.32517517 -0.06736393 -0.07279009 -0.20806348 -0.061944515 0.011663419
-0.24363156

weight f4 [1, 3, 1]
00000000: 53f4 b1be dda8 373f 74bd a2bd
-0.34756717 0.7174204 -0.079462916

exp_avg f4 [3, 1, 3]
00000000: de07 3939 02bd 6239 962f 2739 0dc4 8638
00000010: 6a41 1d39 4d56 2e39 2630 1c39 9051 0c39
00000020: ac3a f638
0.00017645906 0.0002162345 0.00015944088 6.426135e-05 0.00014997055 0.00016626083 0.00014895256 0.00013381825
0.000117411226

exp_avg_sq f4 [3, 1, 3]
00000000: c304 0838 b0a9 3338 bd77 6d38 0c43 f335
00000010: 9cfc e435 d21e 0e36 2efd e336 d7f2 f836
00000020: 44dd 3037
3.242936e-05 4.283496e-05 5.661672e-05 1.8124424e-06 1.7060843e-06 2.1177589e-06 6.794601e-06 7.4192462e-06
1.0541935e-05

exp_avg f4 [3]
00000000: bc5f cd39 5273 6d39 4edf db38
0.00039171975 0.00022645041 0.000104843275

exp_avg_sq f4 [3]
00000000: f27b a039 3a1c 2637 5fab 4637
0.00030609925 9.900943e-06 1.184162e-05

exp_avg f4 [3, 3, 3]
00000000: 0414 0300 1872 0100 846b 0100 0400 0000
00000010: 6b4d 0200 0400 0080 0400 0000 cc3d 0200
00000020: 093c 0200 6309 7d38 ab68 0138 956e 5f39
00000030: 9160 e2b7 45a5 a737 0c38 8438 8a25 5137
00000040: f900 1f37 c86a e437 3f10 e9b7 7bf1 2337
00000050: c8cf b9b7 9e1a d237 c6a6 1238 7e29 c137
00000060: 7d67 0337 7677 3237 5eac 1337
2.82687e-40 1.32765e-40 1.30405e-40 6e-45 2.11443e-40 -6e-45 6e-45 2.0584e-40
2.05208e-40 6.0328643e-05 3.0853476e-05 0.00021308132 -2.6986267e-05 1.9984911e-05 6.30469e-05 1.2466111e-05
9.477365e-06 2.7229442e-05 -2.778333e-05 9.771781e-06 -2.2150474e-05 2.5046345e-05 3.4964432e-05 2.3026714e-05
7.832304e-06 1.0637441e-05 8.802015e-06

exp_avg_sq f4 [3, 3, 3]
00000000: 4e03 e937 bfa7 2238 81cb 0d38 61a8 8134
00000010: 2810 6636 32d1 3936 f950 d434 bc0f 5d35
00000020: 0743 8335 f20f 1239 0066 1e39 f1a8 2f39
00000030: 4b8e 4538 0276 5638 7fed 6a38 8f0e c336
00000040: 1828 d736 5dee ed36 e346 9f33 8212 d433
00000050: ddde 9e33 e859 5c36 4cff 8136 d360 6336
00000060: 40a2 8d35 7e60 8c35 02b2 8935
2.7777303e-05 3.8780036e-05 3.3806547e-05 2.4150634e-07 3.4282075e-06 2.7688916e-06 3.9546993e-07 8.235181e-07
9.779768e-07 0.00013929585 0.00015106052 0.00016752236 4.710098e-05 5.113148e-05 5.6011133e-05 5.8131477e-06
6.412167e-06 7.0908995e-06 7.416909e-08 9.875386e-08 7.397987e-08 3.2834887e-06 3.87422e-06 3.3881995e-06
1.055254e-06 1.0458896e-06 1.0259103e-06

exp_avg f4 [3]
00000000: 1b0e 0600 1665 493a d8e5 29b8
5.56073e-40 0.00076826045 -4.05068e-05

exp_avg_sq f4 [3]
00000000: ad13 4438 cb77 d83a 63b4 d936
4.6748366e-05 0.0016515193 6.4881037e-06

exp_avg f4 [3, 1, 1]
00000000: 7dce 513b 1309 78bb 5899 4cba
0.0032013946 -0.0037847206 -0.00078048324

exp_avg_sq f4 [3, 1, 1]
00000000: dbf2 913a 47bc c13a 36e1 3339
0.0011134999 0.0014780842 0.00017154668

exp_avg f4 [3]
00000000: 1dec 9bba 5726 383a 7a1d 9239
-0.0011895929 0.0007024756 0.00027869252

exp_avg_sq f4 [3]
00000000: 9a70 563b 242f af3a db5f 823a
0.0032720924 0.001336549 0.000994678

exp_avg f4 [3, 3, 3]
00000000: cfa4 f938 e2d0 a538 94ee b538 3375 c1b9
00000010: 58df 95b9 dd69 82b8 3969 b739 2fcf 8239
00000020: 4665 3139 44ed 30b8 5536 cdb8 bd98 5937
00000030: adc5 19b9 147d c9b8 8c36 9e38 bac7 29b6
00000040: ae96 f3b8 ed2a 89b7 f656 a838 2c4e 8038
00000050: 9bd0 0a39 db4f b8b9 b3d7 70b9 c52d 6638
00000060: 0682 9139 6088 4d39 60d6 4c39
0.00011903943 7.9067206e-05 8.675191e-05 -0.0003689915 -0.000285859 -6.2186016e-05 0.00034982877 0.00024949896
0.00016917763 -4.218264e-05 -9.785282e-05 1.296977e-05 -0.00014664857 -9.6077245e-05 7.544187e-05 -2.5299219e-06
-0.00011615209 -1.6351662e-05 8.027062e-05 6.118076e-05 0.00013238417 -0.00035154712 -0.00022968538 5.48789e-05
0.0002775343 0.00019601127 0.00019534817

exp_avg_sq f4 [3, 3, 3]
00000000: 370c 2738 d79c 3938 39b6 4238 f93b 8037
00000010: 0a18 6437 13fb 7237 e9dc b636 94dc c236
00000020: 77ca bf36 4f33 9237 7e08 ae37 3c46 c137
00000030: 656a b836 d5b5 de36 2bb5 ed36 bf83 ad36
00000040: 6065 b836 ae39 c236 8d87 b038 5d9b c438
00000050: 976c d638 fb34 e237 a6a7 ef37 3e9f 1038
00000060: 5e0c 0f37 281c 0d37 801f 0e37
3.982728e-05 4.4253506e-05 4.6422912e-05 1.5286716e-05 1.3595456e-05 1.4482782e-05 5.44974e-06 5.807329e-06
5.7158136e-06 1.7428449e-05 2.074637e-05 2.3040098e-05 5.4960133e-06 6.6372836e-06 7.084241e-06 5.171139e-06
5.495429e-06 5.7883653e-06 8.417582e-05 9.374947e-05 0.000102245416 2.696597e-05 2.8569088e-05 3.448058e-05
8.526344e-06 8.410811e-06 8.471194e-06

exp_avg f4 [3]
00000000: 6868 19b9 1e0f fdb7 8e30 75b9
-0.00014630111 -3.016699e-05 -0.00023383109

exp_avg_sq f4 [3]
00000000: 8fa1 6238 0a14 0e38 c760 f538
5.4033062e-05 3.38741e-05 0.000117005366

exp_avg f4 [3, 3, 3]
00000000: e49a 8b39 0e6b c239 0fdb 10b7 5d77 8bb9
00000010: c722 47b9 31ee 53b9 30f5 7d39 b886 7239
00000020: 0d3a 1239 c58f b6b7 156c 1936 dd26 3239
00000030: 8349 5f38 5371 2d37 c545 d538 e65e 5138
00000040: c662 3036 901a 6437 69f6 47b6 2229 37b5
00000050: eee6 79b7 9880 1034 366a 35b6 1d4f 8e37
00000060: 4dfb 10b6 996c 3836 424a 39b5
0.00026627549 0.00037082325 -8.634072e-06 -0.0002660108 -0.00018991074 -0.00020211261 0.000242193 0.00023129105
0.0001394527 -2.1763039e-05 2.2861689e-06 0.0001698988 5.3235806e-05 1.0337989e-05 0.00010169627 4.9917864e-05
2.6283537e-06 1.3596044e-05 -2.979674e-06 -6.823267e-07 -1.4895324e-05 1.3457827e-07 -2.7032925e-06 1.696456e-05
-2.1603948e-06 2.7481349e-06 -6.902593e-07

exp_avg_sq f4 [3, 3, 3]
00000000: abaf 1f39 af55 3d39 f1b8 6d39 8904 f236
00000010: 75a5 dc36 8d9e e036 4783 1f38 a8e6 3c38
00000020: 1a48 6338 05c0 d837 68ce 9537 4919 9438
00000030: e369 5537 db6c 2b37 5cea 8237 9bdc 5236
00000040: 7201 6836 18ac 2336 1931 5b30 2d09 2230
00000050: b507 5b32 77d1 b732 9f90 3333 a2c7 6c34
00000060: 82e3 8631 6bf2 7d30 075f 2130
0.00015228863 0.00018056364 0.00022670977 7.21269e-06 6.5757727e-06 6.694178e-06 3.8030816e-05 4.503751e-05
5.4188167e-05 2.5838623e-05 1.78583e-05 7.0619e-05 1.2720443e-05 1.0217739e-05 1.560634e-05 3.1420848e-06
3.4571535e-06 2.4389064e-06 7.974151e-10 5.8948296e-10 1.274923e-08 2.1399257e-08 4.1808217e-08 2.2051839e-07
3.925778e-09 9.238536e-10 5.87065e-10

exp_avg f4 [3]
00000000: cf61 54b9 ee23 bb3a 8bb0 8838
-0.00020254332 0.0014277676 6.517869e-05

exp_avg_sq f4 [3]
00000000: f7ec c039 33c3 fe39 af86 9e36
0.00036797646 0.0004859209 4.724446e-06

exp_avg f4 [3, 3, 3]
00000000: 201c 9238 1953 1039 690e aa39 b78d 14b9
00000010: a853 18b9 9f34 15ba a15b 2b39 f9b1 5b39
00000020: b20c d6b8 98c4 b338 7e73 1c38 a967 9039
00000030: 25ed dab8 53ef 1db9 4c39 13b9 fbf1 8d39
00000040: 9a82 1039 4db1 b038 ab96 a5b8 7e57 8137
00000050: 2cb1 6839 d138 f938 e8c4 00b8 9586 80b9
00000060: 60ab b036 430d a338 e800 cab8
6.967061e-05 0.00013763866 0.00032435663 -0.00014167173 -0.00014527014 -0.000569174 0.00016341965 0.00020951768
-0.0001020668 8.5720036e-05 3.730086e-05 0.00027543053 -0.00010439222 -0.00015061842 -0.00014040357 0.00027073905
0.00013781563 8.425359e-05 -7.895877e-05 1.541874e-05 0.00022191246 0.00011883828 -3.070096e-05 -0.00024514334
5.2651594e-06 7.774916e-05 -9.6322794e-05

exp_avg_sq f4 [3, 3, 3]
00000000: b0d3 e136 b1bf 1137 9feb c737 b257 e436
00000010: 19ee eb36 e833 1337 2bb8 6236 75dd 8136
00000020: c1c3 9c36 41e9 aa36 4431 0437 1790 1937
00000030: 6867 fa35 454a 7c36 6310 ec36 fdaf 8a36
00000040: add3 bb36 0679 8736 2b7a 3438 110b 6f38
00000050: af2e b438 79d0 9a37 b36e ae37 f26b 0338
00000060: a0e5 9737 ab6e b637 077b e137
6.730166e-06 8.687305e-06 2.3832368e-05 6.8051386e-06 7.031264e-06 8.773968e-06 3.3783824e-06 3.8702806e-06
4.671951e-06 5.093549e-06 7.879284e-06 9.153059e-06 1.8656547e-06 3.7594157e-06 7.0352557e-06 4.133208e-06
5.5976766e-06 4.0374025e-06 4.3029122e-05 5.6992347e-05 8.591764e-05 1.8455308e-05 2.0793965e-05 3.1333366e-05
1.810753e-05 2.1747624e-05 2.687938e-05

exp_avg f4 [3]
00000000: 6be0 c939 28c1 8db8 b884 7d39
0.00038504912 -6.759382e-05 0.00024177402

exp_avg_sq f4 [3]
00000000: 2ab1 b637 d6a2 9237 ba19 1c39
2.177859e-05 1.7480383e-05 0.00014886903

exp_avg f4 [3, 3, 3]
00000000: 3168 ac36 797c 8539 6b2e 0f39 4b6c 9db7
00000010: 645f a338 c1a8 46b9 ce31 9638 6dd4 8139
00000020: 8088 6639 e040 3bb7 9998 5e36 7203 6738
00000030: f5b8 d538 d531 6d39 b1b1 f338 84fd 8837
00000040: cf83 e337 591f 3ab8 d6c1 4736 48af 1538
00000050: a7c0 9037 04bc 5237 f14a 91b6 8b6e d836
00000060: d6b7 9438 3663 0137 6994 0b37
5.138129e-06 0.00025460476 0.00013654835 -1.8766286e-05 7.7902136e-05 -0.00018945617 7.161834e-05 0.00024763067
0.0002198536 -1.11611735e-05 3.3169401e-06 5.50779e-05 0.000101910824 0.00022620645 0.000116202405 1.6330516e-05
2.7121887e-05 -4.437505e-05 2.9766138e-06 3.568761e-05 1.7255848e-05 1.2560751e-05 -4.330061e-06 6.4501705e-06
7.091432e-05 7.7120985e-06 8.3196e-06

exp_avg_sq f4 [3, 3, 3]
00000000: 3cb2 b237 3c06 1538 931a b538 f4d2 e936
00000010: 7fd0 1637 3992 1f37 1215 df37 c26a 0838
00000020: 5679 0438 4f6f d436 d597 f035 527e 6037
00000030: 281f ad38 0209 df38 4b4b ef38 bd70 0f37
00000040: 48f6 2137 7114 2437 0f3d 0734 6892 f535
00000050: 22d1 9436 c0ba b436 95a8 8934 31d2 6137
00000060: ef71 a935 02e0 6235 f8e1 3a35
2.130225e-05 3.5530175e-05 8.6357024e-05 6.9684993e-06 8.989241e-06 9.511184e-06 2.6593483e-05 3.2524353e-05
3.1584255e-05 6.3310504e-06 1.7925582e-06 1.3380852e-05 8.255086e-05 0.000106351465 0.000114104325 8.549713e-06
9.65369e-06 9.779921e-06 1.2595068e-07 1.8296532e-06 4.43509e-06 5.3861586e-06 2.5640898e-07 1.3459984e-05
1.262464e-06 8.4517535e-07 6.961923e-07

exp_avg f4 [3]
00000000: 99e3 9538 f4ff a43a 3cb0 5939
7.147267e-05 0.0012588487 0.00020760385

exp_avg_sq f4 [3]
00000000: 94cb 1239 a309 ef39 e24b f338
0.00013999484 0.00045592812 0.00011601277

exp_avg f4 [3, 3, 3]
00000000: 6e55 3238 ec03 7cb9 a00a 9d38 a784 48b8
00000010: 9a48 a3b9 20e1 6cba 7250 b839 28e4 ee39
00000020: b954 9238 b7ea edb9 bded 10b9 0bbd f838
00000030: ea7e ae39 4b8e 2e36 6e15 beba 9746 97b9
00000040: f9b4 da38 f8e8 04ba 5106 dcb7 7efe a5b8
00000050: 37d8 df38 9083 5eb8 f806 9eb8 dccd d0b9
00000060: ac31 22b9 04c8 a139 5c57 0e39
4.251807e-05 -0.00024034054 7.4883224e-05 -4.7807258e-05 -0.00031143875 -0.0009036232 0.0003515515 0.00045564887
6.977603e-05 -0.0004537904 -0.00013821475 0.000118607735 0.00033282425 2.6010846e-06 -0.0014502236 -0.00028853558
0.00010428759 -0.00050701154 -2.6228985e-05 -7.915216e-05 0.00010673742 -5.305145e-05 -7.535325e-05 -0.0003982623
-0.00015468028 0.00030857336 0.00013574719

exp_avg_sq f4 [3, 3, 3]
00000000: 6687 e837 8e52 2638 65fd 2138 99d0 de36
00000010: fd3b 8f37 4307 7c38 64bf f136 b5cb e836
00000020: 93bb 8037 42da 1c39 0dad dc39 c320 5c3a
00000030: fe71 2538 a043 4738 e656 1c39 b09a e938
00000040: 9971 0939 ce69 3539 5eb0 c737 a422 8c38
00000050: 6e12 4039 84fc 3136 3c7f d536 dabb 5c37
00000060: fc8c bc37 640a 1737 e2f9 ac36
2.7719605e-05 3.965437e-05 3.8621383e-05 6.6403995e-06 1.7074863e-05 6.0088245e-05 7.2046405e-06 6.9378534e-06
1.5346135e-05 0.00014958627 0.00042090603 0.0008397216 3.944523e-05 4.7508278e-05 0.00014909692 0.000111391186
0.00013107657 0.0001730092 2.3804776e-05 6.6821725e-05 0.00018317412 2.6522039e-06 6.3627067e-06 1.3156759e-05
2.2476997e-05 9.002721e-06 5.1550896e-06

exp_avg f4 [3]
00000000: 8002 b939 ea87 973a 78c6 9337
0.00035287812 0.0011560891 1.7616185e-05

exp_avg_sq f4 [3]
00000000: 6f22 2739 beb8 c43a 6c85 7d39
0.00015939189 0.0015008671 0.00024177664

exp_avg f4 [1, 3, 3]
00000000: f739 8239 3c4f ed38 789b 6dba 0463 ebb9
00000010: ab74 8bb8 2ce8 0fbb de07 c138 72ab 153a
00000020: ba35 9fb9
0.0002483872 0.00011315799 -0.0009063999 -0.00044896465 -6.6497676e-05 -0.0021958454 9.2044225e-05 0.0005709446
-0.00030366873

exp_avg_sq f4 [1, 3, 3]
00000000: 8257 b538 1549 dc39 ef14 9e3a 6166 eb3a
00000010: a879 833b 7a15 bf3b 509a 9b37 8692 b738
00000020: 3725 4c39
8.647052e-05 0.0004201612 0.0012060682 0.0017959588 0.0040123053 0.0058314176 1.8549297e-05 8.753412e-05
0.0001946882

exp_avg f4 [1, 3, 1]
00000000: 1d94 72bb beb6 d3bb b052 823a
-0.0037014552 -0.0064609936 0.0009942856

exp_avg_sq f4 [1, 3, 1]
00000000: 5aa7 453c 49ea 433b 5fb1 a23a
0.0120638255 0.0029894284 0.001241248
