benchmarks/.darts/checkpoints/torch_model_run/checkpoint_97.pth.tar (torch, 59591 bytes, 54 tensors)

weight f4 [3, 1, 3]
-0.1583229 0.27460465 -0.033297684 -0.16166356 -0.03179271 0.4167496 0.2936408 0.42326722
-0.3114034
00000000: 661f 22be fb98 8c3e 2763 08bd 228b 25be
00000010: 1339 02bd 3460 d53e 1658 963e 7bb6 d83e
00000020: 4470 9fbe

bias f4 [3]
0.03510837 -0.13871601 -0.48434263
00000000: cbcd 0f3d 920b 0ebe c2fb f7be

weight f4 [3, 3, 3]
0.09602567 0.27374107 0.15019399 -0.32498115 2.588188e-05 -0.08481232 -0.30672118 0.1092285
0.06751952 0.063918136 0.0641682 0.15986997 -0.026049877 0.09273298 0.23004192 -0.012811938
0.058608137 0.31180564 0.09686211 0.1399135 -0.047889993 -0.04561435 0.16492411 0.027651142
0.32389414 0.15685444 -0.098141186
00000000: 1ba9 c43d ca27 8c3e 74cc 193e ee63 a6be
00000010: ea1c d937 15b2 adbd 8f0a 9dbe 31b3 df3d
00000020: ad47 8a3d 83e7 823d 9e6a 833d f4b4 233e
00000030: 8d66 d5bc caea bd3d 1c90 6b3e 2ae9 51bc
00000040: 160f 703d fda4 9f3e a45f c63d 7c45 0f3e
00000050: 4c28 44bd 1dd6 3abd dee1 283e a684 e23c
00000060: 74d5 a53e 739e 203e 3ffe c8bd

bias f4 [3]
-0.21237138 -0.02248845 -0.008845411
00000000: e277 59be b339 b8bc 58ec 10bc

weight f4 [3, 1, 1]
-0.03342004 0.8971057 -0.43950775
00000000: 74e3 08bd b8a8 653f 2907 e1be

bias f4 [3]
-0.5490232 -0.67722785 -0.62465525
00000000: c98c 0cbf ce5e 2dbf 68e9 1fbf

weight f4 [3, 3, 3]
-0.20952956 0.26876664 -0.30126613 0.20760146 -0.1302082 -0.36143807 0.27644137 0.03498073
0.47099537 0.35608584 0.222337 -0.00018235952 0.2331887 -0.17020892 -0.33201498 -0.36202785
0.025250716 0.07230561 -0.13848735 -0.2303528 -0.07141281 -0.13045132 0.032895066 -0.28742355
0.03791608 0.14219761 0.32161364
00000000: eb8e 56be c89b 893e 8e3f 9abe 7a95 543e
00000010: 4c55 05be 690e b9be b989 8d3e f447 0f3d
00000020: 4e26 f13e e250 b63e 4fac 633e c337 3fb9
00000030: 05c9 6e3e 3f4b 2ebe defd a9be b75b b9be
00000040: 97da ce3c f714 943d a1cf 0dbe 9be1 6bbe
00000050: e140 92bd 0895 05be fabc 063d 2e29 93be
00000060: e44d 1b3d 409c 113e 8baa a43e

bias f4 [3]
0.31392685 0.2121974 0.06095373
00000000: 05bb a03e 464a 593e 9eaa 793d

weight f4 [3, 3, 3]
0.046911947 0.22815384 0.28017303 -0.06691944 0.059649836 0.31149372 0.02117421 0.14326808
0.2848248 -0.059345502 -0.37504923 -0.051082063 -0.12465965 -0.30770805 -0.20769267 0.04944833
-0.13593227 -0.48784027 -0.17099595 -0.3953135 -0.09124688 -0.09973868 -0.18625976 -0.09447057
0.0116102025 -0.23720689 -0.5428505
00000000: be26 403d 29a1 693e d772 8f3e 0f0d 89bd
00000010: 6353 743d 1b7c 9f3e 8975 ad3c deb4 123e
00000020: 8ed4 913e 4514 73bd 7406 c0be 6d3b 51bd
00000030: 8f4d ffbd e98b 9dbe 63ad 54be 558a 4a3d
00000040: d431 0bbe 33c6 f9be 9019 2fbe 8866 cabe
00000050: a5df babd cb43 ccbd e1ba 3ebe c979 c1bd
00000060: b838 3e3c 5de6 72be 40f8 0abf

bias f4 [3]
-0.0002991679 0.089982696 0.092986375
00000000: a3d9 9cb9 d948 b83d a46f be3d

weight f4 [3, 3, 3]
0.0012673045 0.0767392 -0.73875666 0.019787084 0.17472531 -0.4756032 -0.23716521 0.3515143
0.6532911 -0.09630871 -0.058615476 -0.3669827 0.013713085 -0.049849164 -0.048928615 0.16140811
-0.050587084 0.41914147 -0.058248166 -0.18115439 -0.016807772 0.16563141 0.14923814 -0.36721492
-0.0757362 -0.028484385 0.31874496
00000000: af1b a63a 7129 9d3d 281f 3dbf 8618 a23c
00000010: 31eb 323e 4382 f3be 70db 72be aff9 b33e
00000020: 163e 273f 803d c5bd c816 70bd 28e5 bbbe
00000030: d9ac 603c a32e 4cbd 5f69 48bd 2b48 253e
00000040: 6734 4fbd b699 d63e a195 6ebd 8980 39be
00000050: 74b0 89bc 489b 293e e2d1 183e 9803 bcbe
00000060: 951b 9bbd 1658 e9bc 8a32 a33e

bias f4 [3]
0.25842324 0.24421331 0.25337008
00000000: 0d50 843e 0e13 7a3e b9b9 813e

weight f4 [3, 3, 3]
-0.06891496 0.025231766 0.6209612 -0.04302396 0.022247244 0.38766098 0.1525874 0.26998186
0.2250653 -0.07988178 -0.36961445 -0.2262504 0.16607775 0.18721129 -0.29027537 -0.117608115
-0.22877567 -0.31108356 -0.19875193 -0.02396563 -0.071790956 0.03201364 -0.30558994 -0.13151374
0.019407012 -0.14729527 -0.24700603
00000000: 4923 8dbd d9b2 ce3c 50f7 1e3f e439 30bd
00000010: da3f b63c 807b c63e df3f 1c3e 103b 8a3e
00000020: 8577 663e 0f99 a3bd 1b3e bdbe 2fae 67be
00000030: 4910 2a3e 51b4 3f3e f99e 94be 86dc f0bd
00000040: 2b44 6abe 5846 9fbe a085 4bbe 9253 c4bc
00000050: 2307 93bd bc20 033d 4976 9cbe 8aab 06be
00000060: 74fb 9e3c 92d4 16be 26ef 7cbe

bias f4 [3]
-0.14287105 0.066096075 0.047085684
00000000: ca4c 12be 615d 873d ebdc 403d

weight f4 [3, 3, 3]
-0.016218511 -0.088986896 -0.41936263 -0.010163879 0.039490413 -0.25206888 0.08571741 -0.07546801
0.58653754 -0.07497935 0.04270267 -0.33626014 0.06403367 0.1111462 -0.23717968 -0.066341095
0.08657135 0.19324188 0.11914821 0.007987174 -0.2867047 0.046773728 0.057518803 -0.24608375
-0.11036449 -0.08806684 0.22425562
00000000: afdc 84bc c33e b6bd b3b6 d6be 6686 26bc
00000010: b3c0 213d 2c0f 81be 9c8c af3d f98e 9abd
00000020: 5327 163f c68e 99bd ffe8 2e3d 4a2a acbe
00000030: 1624 833d 9ea0 e33d 3bdf 72be d7dd 87bd
00000040: 524c b13d 33e1 453e fa03 f43d a3dc 023c
00000050: f5ca 92be cf95 3f3d d698 6b3d 61fd 7bbe
00000060: c706 e2bd 635c b4bd 44a3 653e

bias f4 [3]
0.20472635 0.18832098 -0.0029134173
00000000: c9a3 513e 37d7 403e 08ef 3ebb

weight f4 [1, 3, 3]
0.030995116 0.027912969 -0.3266456 -0.067799814 -0.07294505 -0.2094034 -0.061651517 0.013435593
-0.24476394
00000000: 78e9 fd3c bda9 e43c 183e a7be a1da 8abd
00000010: 3764 95bd d86d 56be 4d86 7cbd f620 5c3c
00000020: 66a3 7abe

weight f4 [1, 3, 1]
-0.3489344 0.71254945 -0.077362865
00000000: 88a7 b2be a469 363f 6c70 9ebd

exp_avg f4 [3, 1, 3]
0.0001768686 0.00020036206 0.00011742693 9.756728e-05 0.00014939587 0.00012900031 0.0002038191 0.00018168493
0.00015779841
00000000: ce75 3939 4818 5239 1a43 f638 099d cc38
00000010: 26a7 1c39 4244 0739 46b8 5539 ad82 3e39
00000020: b076 2539

exp_avg_sq f4 [3, 1, 3]
3.3948592e-05 4.4842203e-05 5.927211e-05 1.8877689e-06 1.7740573e-06 2.2033992e-06 7.1079985e-06 7.762516e-06
1.1032777e-05
00000000: 0664 0e38 f314 3c38 f29a 7838 3f5f fd35
00000010: 251c ee35 1cde 1336 3e81 ee36 c13b 0237
00000020: 6b19 3937

exp_avg f4 [3]
0.00024384486 0.00013494604 0.00014371779
00000000: 9bb0 7f39 4d80 0d39 f3b2 1639

exp_avg_sq f4 [3]
0.0003205 1.0352314e-05 1.2395846e-05
00000000: c808 a839 daae 2d37 c1f7 4f37

exp_avg f4 [3, 3, 3]
3.598741e-38 1.6901799e-38 1.6601287e-38 6e-45 2.691797e-38 -6e-45 6e-45 2.6204287e-38
2.6123883e-38 2.5897249e-05 -3.7959886e-05 0.00017548256 -5.5899083e-05 1.5084596e-05 2.7538314e-05 4.1644937e-05
3.2112544e-05 4.1453935e-05 -8.0932e-06 3.2514065e-05 -1.3666155e-05 3.847284e-05 3.8130256e-05 3.556941e-05
9.363892e-06 1.2110326e-05 9.055796e-06
00000000: 21ef 4301 570b b800 a2c5 b400 0400 0000
00000010: 2d8e 1201 0400 0080 0400 0000 72ab 0e01
00000020: 613b 0e01 eb3d d937 1e37 1fb8 be01 3839
00000030: 2f75 6ab8 d913 7d37 1402 e737 e9ab 2e38
00000040: 95b0 0638 d3de 2d38 08c8 07b7 b65f 0838
00000050: b047 65b7 e65d 2138 0dee 1f38 5d30 1538
00000060: 9c19 1d37 742d 4b37 59ee 1737

exp_avg_sq f4 [3, 3, 3]
2.9085555e-05 4.0606494e-05 3.539876e-05 2.5288082e-07 3.5896694e-06 2.8993004e-06 4.1409567e-07 8.623043e-07
1.0240374e-06 0.0001458536 0.00015817214 0.000175408 4.931683e-05 5.3536925e-05 5.8646165e-05 6.086637e-06
6.713867e-06 7.424644e-06 7.7386346e-08 1.0308251e-07 7.718942e-08 3.4379116e-06 4.056421e-06 3.5475941e-06
1.104937e-06 1.0951273e-06 1.0742096e-06
00000000: c1fc f337 e450 2a38 2179 1438 adc3 8734
00000010: 0de6 7036 9a91 4236 e050 de34 1a79 6735
00000020: a871 8935 47f0 1839 03db 2539 baed 3739
00000030: 8bd9 4e38 d68c 6038 d7fa 7538 d03b cc36
00000040: ae47 e136 3521 f936 982f a633 365e dd33
00000050: 55c3 a533 dfb6 6636 641c 8836 3413 6e36
00000060: 594d 9435 4afc 9235 902d 9035

exp_avg f4 [3]
7.0790706e-38 0.00023902845 3.5022218e-05
00000000: ecb5 c001 b6a3 7a39 d2e4 1238

exp_avg_sq f4 [3]
4.895011e-05 0.0017290907 6.7643114e-06
00000000: c84f 4d38 a8a2 e23a fef8 e236

exp_avg f4 [3, 1, 1]
0.0029279094 -0.0030142246 -0.0009502127
00000000: 2be2 3f3b 4c8a 45bb b217 79ba

exp_avg_sq f4 [3, 1, 1]
0.0011653483 0.0015461955 0.0001795328
00000000: 9abe 983a b6a9 ca3a f840 3c39

exp_avg f4 [3]
-0.001350126 -0.0012087324 0.0013847224
00000000: b6f6 b0ba 546e 9eba 937f b53a

exp_avg_sq f4 [3]
0.0034260447 0.0013973175 0.001041237
00000000: 7e87 603b 3226 b73a 1e7a 883a

exp_avg f4 [3, 3, 3]
1.1729107e-05 -3.9141578e-05 -1.9378758e-05 -0.00048562483 -0.00042308556 -0.00018354002 0.00022683434 0.00011567595
4.566281e-05 -1.1054574e-05 -5.83644e-05 3.7156755e-05 -0.00034971128 -0.0002797132 -8.208003e-05 0.00011801977
1.1945397e-05 7.51933e-05 -3.2176526e-05 -5.2425454e-05 -3.434283e-06 -0.00046963984 -0.00036149775 -9.4464755e-05
0.00014671212 6.705144e-05 3.3798326e-05
00000000: 22c8 4437 f32b 24b8 918f a2b7 769b feb9
00000010: 95d1 ddb9 a674 40b9 61da 6d39 0e97 f238
00000020: 1286 3f38 0977 39b7 4ccc 74b8 c3d8 1b38
00000030: 7459 b7b9 78a6 92b9 6122 acb8 6281 f738
00000040: 1769 4837 18b1 9d38 48f5 06b8 67e3 5bb8
00000050: 8878 66b6 fe39 f6b9 6887 bdb9 611b c6b8
00000060: bcd6 1939 f89d 8c38 adc2 0d38

exp_avg_sq f4 [3, 3, 3]
4.170035e-05 4.633511e-05 4.860642e-05 1.5984277e-05 1.4217298e-05 1.5153646e-05 5.699904e-06 6.07678e-06
5.981792e-06 1.8240044e-05 2.1713147e-05 2.4113178e-05 5.7453008e-06 6.943197e-06 7.4141253e-06 5.39389e-06
5.7296525e-06 6.029506e-06 8.8137436e-05 9.816194e-05 0.000107057545 2.821588e-05 2.9899631e-05 3.609645e-05
8.922572e-06 8.803001e-06 8.865409e-06
00000000: 69e7 2e38 f257 4238 bfde 4b38 f915 8637
00000010: d486 6e37 6a3c 7e37 cd41 bf36 25e7 cb36
00000020: 34b7 c836 3202 9937 a124 b637 a846 ca37
00000030: c2c7 c036 9cf9 e836 dac6 f836 2afd b436
00000040: 5741 c036 1051 ca36 6dd6 b838 4adc cd38
00000050: 1584 e038 24b1 ec37 f8d0 fa37 4566 1738
00000060: 28b2 1537 9ab0 1337 a4bc 1437

exp_avg f4 [3]
4.539472e-05 -6.233106e-05 1.1969934e-05
00000000: 3666 3e38 bcb7 82b8 7ad2 4837

exp_avg_sq f4 [3]
5.65679e-05 3.5432917e-05 0.0001225047
00000000: 5243 6d38 ce9d 1438 9b74 0039

exp_avg f4 [3, 3, 3]
0.0003866722 0.00049075944 -3.060335e-05 -0.00013679487 -9.039319e-05 -0.0001386228 0.00029140734 0.00038618073
0.00022374533 -5.587741e-06 1.0127226e-05 0.00018059641 6.595879e-05 2.8839777e-05 4.5211724e-05 4.4194887e-05
1.9948484e-05 9.687706e-06 -3.0698225e-06 -6.118583e-06 -5.4301778e-05 1.3931963e-05 1.1660558e-05 3.757144e-05
8.578614e-06 3.070794e-07 -6.7240705e-07
00000000: 44ba ca39 4fa6 003a 195c 00b8 9870 0fb9
00000010: 7991 bdb8 465b 11b9 08c8 9839 4d78 ca39
00000020: 2e9d 6a39 547e bbb6 1be8 2937 7b5e 3d39
00000030: 5b53 8a38 f3ec f137 b8a1 3d38 e65d 3938
00000040: 0b57 a737 6188 2237 2603 4eb6 3a4e cdb6
00000050: 17c2 63b8 53bd 6937 b7a1 4337 0796 1d38
00000060: deec 0f37 acdc a434 767f 34b5

exp_avg_sq f4 [3, 3, 3]
0.00015944884 0.0001890518 0.000237382 7.5475755e-06 6.8820164e-06 7.0054734e-06 3.980756e-05 4.714312e-05
5.672947e-05 2.7055381e-05 1.8699377e-05 7.3942494e-05 1.3318764e-05 1.0698539e-05 1.6340033e-05 3.2894418e-06
3.619889e-06 2.553746e-06 8.2706203e-10 6.157148e-10 1.2939907e-08 2.2304041e-08 4.3629402e-08 2.3044151e-07
4.0538524e-09 9.576792e-10 6.119231e-10
00000000: b931 2739 353c 4639 bfe9 7839 2e41 fd36
00000010: 12ec e636 8f10 eb36 0bf7 2638 8abb 4538
00000020: cef0 6d38 fdf4 e237 9bdc 9c37 9311 9b38
00000030: a873 5f37 e07d 3337 f411 8937 2ec0 5c36
00000040: 38ed 7236 0661 2b36 5157 6330 143f 2930
00000050: 504e 5e32 1b97 bf32 0963 3b33 486f 7734
00000060: 104a 8b31 579f 8330 4334 2830

exp_avg f4 [3]
8.162914e-05 0.0012918712 9.358987e-05
00000000: 5030 ab38 0154 a93a ae45 c438

exp_avg_sq f4 [3]
0.00038526638 0.0005085338 4.9274013e-06
00000000: 94fd c939 204f 053a 0e56 a536

exp_avg f4 [3, 3, 3]
-2.8188802e-05 6.403629e-05 0.00034310255 -0.00015560396 -0.00020982661 -0.00064691465 4.9987255e-05 0.0001141021
-0.00022171384 -5.2734824e-05 -8.524191e-05 0.00013130502 -0.00026909428 -0.0002511436 -0.0001474495 5.149966e-05
-0.00011301586 -0.00025172552 -7.063445e-05 -3.74678e-05 0.0002482767 0.00016584643 -0.000121250705 -0.0003861649
-8.060051e-07 3.177136e-05 -0.00012726396
00000000: fe76 ecb7 394b 8638 72e2 b339 9f29 23b9
00000010: e704 5cb9 b595 29ba 68a9 5138 194a ef38
00000020: db7b 68b9 962f 5db8 e7c3 b2b8 ecae 0939
00000030: 3915 8db9 ecab 83b9 ac9c 1ab9 5701 5838
00000040: ee02 edb8 07fa 83b9 9521 94b8 be26 1db8
00000050: 222b 8239 10e7 2d39 fa47 feb8 2d76 cab9
00000060: 405c 58b5 3d42 0538 2972 05b9

exp_avg_sq f4 [3, 3, 3]
7.04559e-06 9.093984e-06 2.494716e-05 7.1187296e-06 7.3548836e-06 9.1670845e-06 3.5334554e-06 4.046961e-06
4.886658e-06 5.3316717e-06 8.248567e-06 9.578356e-06 1.9453003e-06 3.9274746e-06 7.3588744e-06 4.3223545e-06
5.8553887e-06 4.220142e-06 4.5052104e-05 5.9672326e-05 8.995741e-05 1.9314622e-05 2.1765472e-05 3.279524e-05
1.894953e-05 2.2758375e-05 2.8130438e-05
00000000: 2869 ec36 5d92 1837 9e45 d137 6cdd ee36
00000010: f8c9 f636 54cc 1937 4d20 6d36 21cb 8736
00000020: 13f8 a336 b6e6 b236 5363 0a37 bab2 2037
00000030: 018c 0236 c0c8 8336 40ec f636 be08 9136
00000040: 6879 c436 be9a 8d36 54f6 3c38 ac48 7a38
00000050: 84a7 bc38 d605 a237 ff94 b637 9f8d 0938
00000060: cef5 9e37 3de9 be37 a8f9 eb37

exp_avg f4 [3]
0.00055258226 0.0003188417 0.00034155353
00000000: 2bdb 103a 352a a739 8a12 b339

exp_avg_sq f4 [3]
2.2786397e-05 1.8289333e-05 0.00015584967
00000000: 6a25 bf37 0b6c 9937 946b 2339

exp_avg f4 [3, 3, 3]
4.312177e-05 0.0003213354 0.00010237746 3.5269048e-05 0.00014034234 -0.00020625799 0.00023007908 0.00040186592
0.0003120257 5.3440206e-05 -1.7668921e-06 6.773027e-05 0.00016096109 0.00024312653 0.00010825871 2.361878e-05
4.2625637e-05 -1.0685912e-05 1.3417896e-06 3.944446e-05 1.2107635e-05 1.3689765e-05 -6.535932e-06 5.254948e-07
7.2117145e-05 1.26810955e-05 3.9560805e-06
00000000: a6dd 3438 e878 a839 7bb3 d638 daed 1338
00000010: dc28 1339 f546 58b9 6241 7139 88b1 d239
00000020: 6197 a339 fc24 6038 f325 edb5 690a 8e38
00000030: aac7 2839 c8ef 7e39 f408 e338 f220 c637
00000040: eec8 3238 a447 33b7 8a17 b435 2b71 2538
00000050: e521 4b37 18ad 6537 3a4f dbb6 ba0f 0d35
00000060: 993d 9738 e4c0 5437 79be 8436

exp_avg_sq f4 [3, 3, 3]
2.230331e-05 3.7196845e-05 9.0421614e-05 7.2962407e-06 9.411716e-06 9.954953e-06 2.7840628e-05 3.4046752e-05
3.3065073e-05 6.627463e-06 1.8769491e-06 1.4010751e-05 8.643691e-05 0.0001113573 0.00011947744 8.951335e-06
1.0108006e-05 1.024007e-05 1.3188001e-07 1.9157123e-06 4.6438563e-06 5.639782e-06 2.6847698e-07 1.4093885e-05
1.3216342e-06 8.8496637e-07 7.289731e-07
00000000: fe17 bb37 cf03 1c38 bca0 bd38 3bd2 f436
00000010: 03e7 1d37 3304 2737 4b8b e937 6ccd 0e38
00000020: 5aaf 0a38 7961 de36 7beb fb35 b80f 6b37
00000030: 7645 b538 7f88 e938 f68f fa38 b12d 1637
00000040: 8e95 2937 c4cc 2b37 e79a 0d34 b08f 0036
00000050: 6cd2 9b36 5c3d bd36 3223 9034 c674 6c37
00000060: 0163 b135 6d8e 6d35 a6ae 4335

exp_avg f4 [3]
0.00047024974 0.0014272699 0.00015638517
00000000: da8b f639 3b13 bb3a 53fb 2339

exp_avg_sq f4 [3]
0.00014655427 0.00047714068 0.00012146805
00000000: 5dac 1939 bd28 fa39 aabc fe38

exp_avg f4 [3, 3, 3]
-4.282289e-05 -0.00025704407 0.00016091594 -0.00014463681 -0.00048666465 -0.0013909821 0.00017894836 0.0003884753
4.8284433e-05 -0.0004423136 -0.00021282991 0.00015014126 0.00016543585 -0.00028173914 -0.0018737966 -0.00046784154
-0.00012423056 -0.0008114611 -0.00017487498 -0.00013706053 0.00024664466 -6.633922e-05 -0.00014805332 -0.00079619064
-0.0003327937 0.00025363112 4.182972e-05
00000000: ba9c 33b8 dfc3 86b9 8bbb 2839 a6a9 17b9
00000010: 0627 ffb9 9d51 b6ba 16a4 3b39 46ac cb39
00000020: 0485 4a38 54e6 e7b9 182b 5fb9 3d6f 1d39
00000030: d978 2d39 63b6 93b9 2e9a f5ba a148 f5b9
00000040: e343 02b9 3cb8 54ba a55e 37b9 e8b7 0fb9
00000050: 1650 8139 991f 8bb8 c33e 1bb9 73b7 50ba
00000060: d07a aeb9 cbf9 8439 5272 2f38

exp_avg_sq f4 [3, 3, 3]
2.9021763e-05 4.151257e-05 4.042429e-05 6.9385724e-06 1.7845043e-05 6.2761486e-05 7.5310913e-06 7.239973e-06
1.6046066e-05 0.00015661756 0.0004407228 0.00087925314 4.128315e-05 4.970922e-05 0.00015591501 0.000116613286
0.00013722283 0.00018108054 2.491971e-05 6.99634e-05 0.0001917895 2.7531316e-06 6.6259677e-06 1.3659735e-05
2.3520113e-05 9.400858e-06 5.3603403e-06
00000000: c373 f337 c81d 2e38 408d 2938 e2d1 e836
00000010: f0b1 9537 d19e 8338 95b3 fc36 e5ee f236
00000020: aa9a 8637 b539 2439 d010 e739 ae7d 663a
00000030: 7227 2d38 de7e 5038 1e7d 2339 488e f438
00000040: 79e3 0f39 70e0 3d39 ab0a d137 50b9 9238
00000050: 1a1b 4939 71c2 3836 a154 de36 1d2c 6537
00000060: 0f4d c537 61b8 1d37 f9dc b336

exp_avg f4 [3]
0.0006138132 0.0017269092 0.0003246634
00000000: 4ee8 203a 7559 e23a 9537 aa39

exp_avg_sq f4 [3]
0.0001667973 0.0015713107 0.00025303828
00000000: 4fe6 2e39 70f4 cd3a 39aa 8439

exp_avg f4 [1, 3, 3]
0.00029906226 -0.00012157763 -0.0013076427 -0.00059485534 -0.00039310765 -0.0024857149 4.9374652e-05 0.00037689315
-0.00046945037
00000000: 75cb 9c39 7ef7 feb8 3565 abba 11f0 1bba
00000010: 041a ceb9 60e7 22bb a117 4f38 be99 c539
00000020: 9020 f6b9

exp_avg_sq f4 [1, 3, 3]
9.053282e-05 0.00043993507 0.00126278 0.0018805151 0.0042012427 0.006105725 1.9416904e-05 9.1637026e-05
0.00020382158
00000000: 70dc bd38 16a7 e639 de83 a53a 9e7b f63a
00000010: 94aa 893b 8912 c83b 7ce1 a237 412d c038
00000020: f0b8 5539

exp_avg f4 [1, 3, 1]
-0.0041278526 -0.0044072247 0.0019409723
00000000: f042 87bb 7b6a 90bb 3968 fe3a

exp_avg_sq f4 [1, 3, 1]
0.012631075 0.0031264026 0.0012983106
00000000: 92f2 4e3c 55e4 4c3b 132c aa3a
