benchmarks/.darts/checkpoints/torch_model_run/checkpoint_98.pth.tar (torch, 59591 bytes, 54 tensors)

weight f4 [3, 1, 3]
0	0xbe226a1e	-0.15860793
1	0x3e8c7214	0.27430785
2	0xbd0886f8	-0.03333184
3	0xbe25e7a0	-0.16201639
4	0xbd06cf0e	-0.032912306
5	0x3ed4ee42	0.41588026
6	0x3e958cfb	0.29209122
7	0x3ed80dc1	0.42197993
8	0xbe9fe6ea	-0.3123086

bias f4 [3]
0	0x3d0f4658	0.034979194
1	0xbe0e5c31	-0.13902356
2	0xbef8681d	-0.48516932

weight f4 [3, 3, 3]
0	0x3dc4a91b	0.09602567
1	0x3e8c27ca	0.27374107
2	0x3e19cc74	0.15019399
3	0xbea663ee	-0.32498115
4	0x37d91cea	2.588188e-05
5	0xbdadb215	-0.08481232
6	0xbe9d0a8f	-0.30672118
7	0x3ddfb331	0.1092285
8	0x3d8a47ad	0.06751952
9	0x3d82f3d4	0.06394163
10	0x3d8397dd	0.0642545
11	0x3e23847e	0.1596851
12	0xbcd3445d	-0.025789434
13	0x3dbdd6ca	0.092694834
14	0x3e6b8085	0.22998245
15	0xbc5805af	-0.013184949
16	0x3d6edd83	0.05831672
17	0x3e9f7ae7	0.31148455
18	0x3dc764d7	0.097360305
19	0x3e0e4216	0.13892397
20	0xbd3dbbf1	-0.046321813
21	0xbd3c6958	-0.0459989
22	0x3e288cd0	0.16459966
23	0x3cdeed8d	0.027212882
24	0x3ea5bd84	0.3237115
25	0x3e205efd	0.15661235
26	0xbdc97935	-0.098375715

bias f4 [3]
0	0xbe5977e2	-0.21237138
1	0xbcb80249	-0.022462027
2	0xbc06a6de	-0.008218495

weight f4 [3, 1, 1]
0	0xbd1164a9	-0.035496388
1	0x3f66362d	0.89926416
2	0xbee06124	-0.43824112

bias f4 [3]
0	0xbf0c7113	-0.5486004
1	0xbf2d5816	-0.67712533
2	0xbf200852	-0.62512696

weight f4 [3, 3, 3]
0	0xbe56c5f9	-0.20973958
1	0x3e899856	0.26874036
2	0xbe9a4226	-0.30128592
3	0x3e572076	0.21008477
4	0xbe030e9e	-0.12798545
5	0xbeb89dfe	-0.36058038
6	0x3e8c2745	0.2737371
7	0x3d08e04e	0.03341704
8	0x3ef0cea9	0.4703267
9	0x3eb676b5	0.3563744
10	0x3e642c1c	0.22282451
11	0xb80eaee9	-3.4018336e-05
12	0x3e715f08	0.23571408
13	0xbe2c9404	-0.16853338
14	0xbeaa09c5	-0.3321058
15	0xbeb977d2	-0.36224228
16	0x3cd5863d	0.026064986
17	0x3d9557fb	0.072921716
18	0xbe0dd26c	-0.13849801
19	0xbe6bd441	-0.23030187
20	0xbd92682d	-0.07148776
21	0xbe039885	-0.1285115
22	0x3d0c82e8	0.03430453
23	0xbe930cf7	-0.2872083
24	0x3d15208e	0.036408
25	0x3e10c6c6	0.14138326
26	0x3ea45a1e	0.32100004

bias f4 [3]
0	0x3ea0bb6d	0.31392995
1	0x3e591577	0.21199594
2	0x3d7a2281	0.06106806

weight f4 [3, 3, 3]
0	0x3d3d86da	0.046271183
1	0x3e68e693	0.22744207
2	0x3e8f6f53	0.2801462
3	0xbd8670c3	-0.06564476
4	0x3d78b813	0.06072242
5	0x3ea03ab3	0.31294784
6	0x3ca4e458	0.020128414
7	0x3e118152	0.14209488
8	0x3e9180d9	0.28418615
9	0xbd72dcb6	-0.059292518
10	0xbec009b0	-0.3750739
11	0xbd52d2ac	-0.051470444
12	0xbdffe7af	-0.12495362
13	0xbe9d975a	-0.30779535
14	0xbe54fc8e	-0.20799467
15	0x3d48224c	0.048860833
16	0xbe0b6790	-0.13613725
17	0xbef9dec1	-0.4880276
18	0xbe2f28ee	-0.17105457
19	0xbec98957	-0.39362594
20	0xbdaa1c65	-0.08306197
21	0xbdd01e00	-0.10161972
22	0xbe3fcf61	-0.18731453
23	0xbdc56417	-0.09638231
24	0x3c1d1d54	0.009589512
25	0xbe721acd	-0.23643036
26	0xbf0ad478	-0.5423045

bias f4 [3]
0	0xb9cb17e2	-0.0003873697
1	0x3db617f7	0.0889129
2	0x3dbb2d67	0.09139519

weight f4 [3, 3, 3]
0	0x3a962bdd	0.0011457164
1	0x3d9b8bdf	0.07595038
2	0xbf3d81a4	-0.7402594
3	0x3ca72754	0.020404495
4	0x3e3398b0	0.17538714
5	0xbef1cc3f	-0.4722614
6	0xbe745f40	-0.2386446
7	0x3eb2dd9b	0.34934697
8	0x3f2787bf	0.6544151
9	0xbdc4f8ed	-0.09617791
10	0xbd6f8b7d	-0.058482636
11	0xbebc9f40	-0.36840248
12	0x3c81282a	0.015766222
13	0xbd4581b6	-0.048219405
14	0xbd45e18d	-0.048310805
15	0x3e23b1ef	0.15985845
16	0xbd50ec66	-0.051006697
17	0x3ed6f6e8	0.4198525
18	0xbd6d8dd7	-0.057996597
19	0xbe396706	-0.18105707
20	0xbc8e00b7	-0.017334325
21	0x3e289b6f	0.16465543
22	0x3e191161	0.14948036
23	0xbebb78be	-0.36615556
24	0xbd9afb05	-0.075674094
25	0xbcea3a6c	-0.02859231
26	0x3ea37ed5	0.31932703

bias f4 [3]
0	0x3e8381e5	0.2568504
1	0x3e79b3bf	0.24384974
2	0x3e8172b0	0.25282812

weight f4 [3, 3, 3]
0	0xbd8d85ec	-0.06910309
1	0x3cc76df1	0.024344416
2	0x3f1eeef9	0.62083393
3	0xbd3034d0	-0.043019116
4	0x3cb0bd8b	0.021574756
5	0x3ec747c0	0.38921928
6	0x3e1b6209	0.15174116
7	0x3e8993a8	0.26870465
8	0x3e65b223	0.22431235
9	0xbda51879	-0.080613084
10	0xbebd4a12	-0.36970574
11	0xbe68050d	-0.22658177
12	0x3e29c015	0.1657718
13	0x3e3f4041	0.18676855
14	0xbe94ba49	-0.29048374
15	0xbdf0f2ec	-0.11765084
16	0xbe6a9954	-0.22910053
17	0xbe9f1fb4	-0.31078875
18	0xbe4baf1f	-0.19891022
19	0xbcc7ad50	-0.024374634
20	0xbd936662	-0.07197262
21	0x3d029aa3	0.031885754
22	0xbe9c55ff	-0.3053436
23	0xbe06a862	-0.1315017
24	0x3c960a8f	0.018315582
25	0xbe171760	-0.1475501
26	0xbe7d2321	-0.24720432

bias f4 [3]
0	0xbe129d72	-0.14317873
1	0x3d84d03a	0.064850286
2	0x3d3fa9fe	0.046792977

weight f4 [3, 3, 3]
0	0xbc826af5	-0.015920142
1	0xbdb3e3d8	-0.08783692
2	0xbed6d11c	-0.41956413
3	0xbc28f77a	-0.010312909
4	0x3d27f77b	0.0410075
5	0xbe7ee68f	-0.24892639
6	0x3dabb429	0.08383972
7	0xbda1769e	-0.078839526
8	0x3f15fd87	0.5858998
9	0xbd97f223	-0.07419231
10	0x3d2fe4ea	0.04294292
11	0xbeac3255	-0.3363215
12	0x3d80bb6e	0.062857494
13	0x3de3c1ce	0.1112095
14	0xbe701234	-0.23444444
15	0xbd866e33	-0.065639876
16	0x3db13b3e	0.08653878
17	0x3e46eba7	0.19425832
18	0x3df532aa	0.11972554
19	0x3c0b3031	0.008495376
20	0xbe92f2ca	-0.28700858
21	0x3d38a368	0.04507771
22	0x3d69d042	0.057083376
23	0xbe789e82	-0.24279216
24	0xbde02e66	-0.1094635
25	0xbdb922f9	-0.09039874
26	0x3e642e9c	0.22283405

bias f4 [3]
0	0x3e50ebc7	0.20402442
1	0x3e401262	0.18757012
2	0xbb468604	-0.0030292282

weight f4 [1, 3, 3]
0	0x3cf7e5a8	0.030260876
1	0x3ce5af7b	0.028037777
2	0xbea6d6d8	-0.32585788
3	0xbd8a7fc8	-0.067626536
4	0xbd95363e	-0.072857365
5	0xbe55bd43	-0.20872979
6	0xbd7dcd93	-0.06196363
7	0x3c4f16a0	0.012639672
8	0xbe79ff8e	-0.24413893

weight f4 [1, 3, 1]
0	0xbeb24d26	-0.34824485
1	0x3f3706aa	0.71494544
2	0xbda07292	-0.078343526

exp_avg f4 [3, 1, 3]
0	0x39126500	0.0001396127
1	0x391c02ed	0.0001487841
2	0x38b1377c	8.4503525e-05
3	0x386a282e	5.5827368e-05
4	0x38a63d9a	7.926971e-05
5	0x389bdf69	7.432589e-05
6	0x3998fb7b	0.00029179067
7	0x398e2cd5	0.00027117753
8	0x3982087f	0.00024801862

exp_avg_sq f4 [3, 1, 3]
0	0x380b29cc	3.317911e-05
1	0x3837d119	4.3825337e-05
2	0x3872f6fe	5.7927326e-05
3	0x35f807ba	1.8479689e-06
4	0x35e93a1a	1.7376763e-06
5	0x3610d518	2.158171e-06
6	0x36e92f00	6.9494126e-06
7	0x36fea305	7.588768e-06
8	0x3734ee6e	1.078435e-05

exp_avg f4 [3]
0	0x393ee068	0.0001820341
1	0x385af572	5.220384e-05
2	0x3957e6fd	0.00020590048

exp_avg_sq f4 [3]
0	0x39a4370e	0.00031321537
1	0x3729d551	1.0122852e-05
2	0x374b43b3	1.2115505e-05

exp_avg f4 [3, 3, 3]
0	0x0022bb23	3.189539e-39
1	0x00104fce	1.497996e-39
2	0x0010058e	1.47136e-39
3	0x00000004	6e-45
4	0x0019fa6d	2.385723e-39
5	0x80000004	-6e-45
6	0x00000004	6e-45
7	0x00194a1a	2.32247e-39
8	0x0019363b	2.315342e-39
9	0x36c30a26	5.8126343e-06
10	0x37d54c95	2.542724e-05
11	0x3906287e	0.0001279432
12	0xb83769b0	-4.372903e-05
13	0xb5b60edc	-1.3564381e-06
14	0x3823d942	3.9064565e-05
15	0x385646bb	5.108745e-05
16	0x3849a0ea	4.8071997e-05
17	0x38804acb	6.117447e-05
18	0xb6f31f8e	-7.245638e-06
19	0xb68c12ba	-4.174505e-06
20	0xb7c3de2a	-2.3349265e-05
21	0x37b66d4f	2.1746991e-05
22	0x377068fb	1.4329557e-05
23	0x37e86708	2.7704533e-05
24	0x368ae9f5	4.1399567e-06
25	0x36a3e493	4.884388e-06
26	0x36b4c0f1	5.3868794e-06

exp_avg_sq f4 [3, 3, 3]
0	0x37ee6fdd	2.8423901e-05
1	0x38267109	3.9682756e-05
2	0x3811187c	3.4593497e-05
3	0x3484ad09	2.4712816e-07
4	0x366b6b25	3.5080095e-06
5	0x363e2483	2.833346e-06
6	0x34d94233	4.0467566e-07
7	0x35623515	8.4268805e-07
8	0x3586513d	1.0007421e-06
9	0x391575db	0.00014253652
10	0x39221578	0.00015457522
11	0x3933bef5	0.00017141907
12	0x384a25c3	4.819572e-05
13	0x385b720a	5.2319876e-05
14	0x387063a2	5.731325e-05
15	0x36c79798	5.94831e-06
16	0x36dc28c2	6.5612558e-06
17	0x36f37767	7.2558646e-06
18	0x33a2910d	7.5700974e-08
19	0x33d887a0	1.0082954e-07
20	0x33a23a68	7.554337e-08
21	0x36617875	3.3597728e-06
22	0x3685045e	3.9642173e-06
23	0x3668aa09	3.4669667e-06
24	0x3590edef	1.0798084e-06
25	0x358fa493	1.0702228e-06
26	0x358ce63e	1.0497822e-06

exp_avg f4 [3]
0	0x004451bb	6.274133e-39
1	0x399c67b1	0.00029831895
2	0xb8eb7896	-0.00011228134

exp_avg_sq f4 [3]
0	0x3848a420	4.783657e-05
1	0x3add7de4	0.001689848
2	0x36de29d5	6.6209855e-06

exp_avg f4 [3, 1, 1]
0	0x3b405cab	0.002935211
1	0xbb6cfb25	-0.0036160436
2	0xba373bc4	-0.0006989802

exp_avg_sq f4 [3, 1, 1]
0	0x3a954e31	0.0011391101
1	0x3ac62476	0.0015117067
2	0x393804e3	0.00017549428

exp_avg f4 [3]
0	0xbab96a15	-0.0014145995
1	0x3ac1f428	0.0014797496
2	0x38ccc742	9.764593e-05

exp_avg_sq f4 [3]
0	0x3b5b6d26	0.0033481806
1	0x3ab311c1	0.0013661907
2	0x3a8561e1	0.0010176265

exp_avg f4 [3, 3, 3]
0	0x38e215f9	0.000107806125
1	0x384d8404	4.8998758e-05
2	0x383f11d6	4.555456e-05
3	0xb9cc5848	-0.00038975687
4	0xb9afb966	-0.00033516734
5	0xb8fe239b	-0.00012118296
6	0x39b38c67	0.00034246148
7	0x39694d72	0.00022249462
8	0x39044301	0.00012613462
9	0x37a726c3	1.9926001e-05
10	0xb8311c6d	-4.2226562e-05
11	0x372f650b	1.0454339e-05
12	0xb97f5ae9	-0.00024352562
13	0xb9577068	-0.00020545872
14	0xb69b6195	-4.63072e-06
15	0x390d151c	0.00013454672
16	0x372fedd9	1.0486191e-05
17	0x370191ec	7.722974e-06
18	0x38177226	3.6107514e-05
19	0x3606159a	1.998013e-06
20	0x38907c2f	6.889586e-05
21	0xb9e18fc4	-0.00043022458
22	0xb9af279c	-0.00033408112
23	0xb83d5124	-4.513668e-05
24	0x397b276a	0.00023951908
25	0x3916005c	0.00014305249
26	0x390b3eca	0.00013279464

exp_avg_sq f4 [3, 3, 3]
0	0x382aee32	4.0752995e-05
1	0x383ded6e	4.5282235e-05
2	0x38473cdc	4.7501977e-05
3	0x37831eb3	1.5630712e-05
4	0x37693e22	1.3902349e-05
5	0x377889e6	1.4814059e-05
6	0x36bb0566	5.5736627e-06
7	0x36c75516	5.9405675e-06
8	0x36c432cd	5.847169e-06
9	0x37958f5b	1.782894e-05
10	0x37b208ad	2.1223294e-05
11	0x37c5b77e	2.3569675e-05
12	0x36bc82f1	5.61808e-06
13	0x36e3bf98	6.7874316e-06
14	0x36f32734	7.246528e-06
15	0x36b12fd2	5.280578e-06
16	0x36bc3d59	5.6099784e-06
17	0x36c62e3d	5.9062427e-06
18	0x38b4a280	8.613337e-05
19	0x38c92deb	9.59298e-05
20	0x38db692b	0.00010462323
21	0x37e76162	2.7582693e-05
22	0x37f52a1c	2.9225885e-05
23	0x3813f7f2	3.527845e-05
24	0x371254f6	8.72206e-06
25	0x37105b6c	8.604355e-06
26	0x37116288	8.665615e-06

exp_avg f4 [3]
0	0xb8953dd2	-7.1163886e-05
1	0xb7a6989a	-1.9859803e-05
2	0xb8f4e9d9	-0.00011678384

exp_avg_sq f4 [3]
0	0x3867e251	5.5285465e-05
1	0x38114c9a	3.4642035e-05
2	0x38fb1301	0.000119721524

exp_avg f4 [3, 3, 3]
0	0x39c4ea4d	0.000375586
1	0x39d97d1e	0.00041482685
2	0x38727ab7	5.7811583e-05
3	0xb938e2a1	-0.00017632033
4	0xb8c81e2f	-9.542365e-05
5	0xb9252d9d	-0.00015752618
6	0x399ac9dd	0.0002952357
7	0x39bb95f5	0.00035779146
8	0x395ae3fd	0.00020875032
9	0xb7cc70da	-2.4371246e-05
10	0x36f6e475	7.357967e-06
11	0x392102bc	0.00015355175
12	0x38674d84	5.5146884e-05
13	0x37daab2b	2.6067331e-05
14	0x38741328	5.8191974e-05
15	0x3819a644	3.663289e-05
16	0x3799b589	1.8323555e-05
17	0x3761245a	1.3419509e-05
18	0x366f5766	3.5664648e-06
19	0x35dd1b10	1.6473659e-06
20	0xb8259e8e	-3.948673e-05
21	0x360b0a8a	2.0718749e-06
22	0x360fd0e9	2.1430262e-06
23	0x3835a136	4.3303902e-05
24	0x36a5419d	4.9250216e-06
25	0xb69206e7	-4.3519426e-06
26	0xb6271326	-2.4896085e-06

exp_avg_sq f4 [3, 3, 3]
0	0x392365ad	0.00015582769
1	0x3941bbdb	0.00018475896
2	0x397340e7	0.00023198464
3	0x36f78f56	7.37786e-06
4	0x36e1b93a	6.7270857e-06
5	0x36e5c715	6.847908e-06
6	0x38233282	3.8909267e-05
7	0x384143f8	4.6078087e-05
8	0x38688ca8	5.5444107e-05
9	0x37ddcb77	2.6439999e-05
10	0x37994b1f	1.8274002e-05
11	0x38978b09	7.2261384e-05
12	0x375a5fcc	1.3016117e-05
13	0x372f695e	1.0455346e-05
14	0x3785f4c6	1.5968817e-05
15	0x3657c0e5	3.2149776e-06
16	0x366d6763	3.537593e-06
17	0x36277b3a	2.4956666e-06
18	0x305eac81	8.100827e-10
19	0x3025bda4	6.0296146e-10
20	0x325bd03e	1.27948265e-08
21	0x32bb99fb	2.1839687e-08
22	0x33376ec4	4.270875e-08
23	0x3472051c	2.2539865e-07
24	0x3188d65c	3.982491e-09
25	0x30811df4	9.394499e-10
26	0x3024b8e1	5.992558e-10

exp_avg f4 [3]
0	0xb84462fe	-4.6822235e-05
1	0x3aaaeb6d	0.0013040133
2	0x38bd26ae	9.019427e-05

exp_avg_sq f4 [3]
0	0x39c5675e	0.00037651783
1	0x3a024dff	0.0004970729
2	0x36a1d3cd	4.8228308e-06

exp_avg f4 [3, 3, 3]
0	0x3867e206	5.5285193e-05
1	0x38cefb74	9.869682e-05
2	0x39c7df78	0.00038122735
3	0x381c7c53	3.7309084e-05
4	0x36c0c2fe	5.744746e-06
5	0xb9b4aac4	-0.00034459506
6	0x39673086	0.00022047953
7	0x39946b3b	0.00028308653
8	0x3799f201	1.8351713e-05
9	0x376c9d9d	1.4103393e-05
10	0x3789b0e6	1.6414047e-05
11	0x3995bcc2	0.0002856013
12	0xb8e0aae4	-0.00010712983
13	0xb928148f	-0.00016029387
14	0xb88f5de8	-6.836263e-05
15	0x39507c9e	0.0001988285
16	0x38bf8834	9.1329595e-05
17	0x37252b0d	9.84479e-06
18	0xb828962d	-4.0194183e-05
19	0xb6d465bf	-6.329937e-06
20	0x39838942	0.00025088532
21	0x399cd272	0.00029911433
22	0x38a93e6c	8.070175e-05
23	0xb8fad41e	-0.00011960439
24	0x38f79d22	0.00011807146
25	0x392a6e01	0.00016253443
26	0xb754bb68	-1.2679819e-05

exp_avg_sq f4 [3, 3, 3]
0	0x36e70ee1	6.8860686e-06
1	0x37151fd1	8.8885e-06
2	0x37cc8b5b	2.4383588e-05
3	0x36e98629	6.9595594e-06
4	0x36f145a7	7.1904683e-06
5	0x37166b7b	8.9657215e-06
6	0x3667dde5	3.4550842e-06
7	0x3684cd53	3.9578094e-06
8	0x36a05190	4.7778667e-06
9	0x36aedc99	5.211285e-06
10	0x37074057	8.061607e-06
11	0x371d183d	9.363573e-06
12	0x35ffb9ed	1.9053092e-06
13	0x3680f2a9	3.8429466e-06
14	0x36f16c1d	7.1949457e-06
15	0x368dd38d	4.226755e-06
16	0x36c01a4a	5.7251063e-06
17	0x368a8314	4.12798e-06
18	0x3838aaa6	4.4027947e-05
19	0x38749857	5.831601e-05
20	0x38b85e56	8.791375e-05
21	0x379e61e9	1.888066e-05
22	0x37b27507	2.1273749e-05
23	0x38067343	3.2055435e-05
24	0x379b5dab	1.8521057e-05
25	0x37ba991c	2.2244225e-05
26	0x37e6a46a	2.7494698e-05

exp_avg f4 [3]
0	0x390fb0fc	0.00013703475
1	0xb7b63579	-2.172099e-05
2	0x38b157ed	8.456395e-05

exp_avg_sq f4 [3]
0	0x37bada6a	2.2274635e-05
1	0x3795fef6	1.788091e-05
2	0x391fb654	0.00015231344

exp_avg f4 [3, 3, 3]
0	0xb754d19d	-1.2684989e-05
1	0x39a4b3dd	0.00031414526
2	0xb672a923	-3.615926e-06
3	0xb77f6d0c	-1.5224574e-05
4	0x389207ff	6.963312e-05
5	0xb988ff42	-0.00026130123
6	0x38d90f2f	0.000103501945
7	0x398df29f	0.00027074383
8	0x38eb49e4	0.000112194364
9	0x380b39ec	3.3194126e-05
10	0xb3e50fe5	-1.0666535e-07
11	0x389c740a	7.4602736e-05
12	0x38e706ec	0.00011016228
13	0x395356d7	0.00020154878
14	0x38e79849	0.00011043304
15	0x36f0d88a	7.177766e-06
16	0x38760ac3	5.8660993e-05
17	0xb8106d10	-3.4433848e-05
18	0x36a2b73e	4.8493084e-06
19	0x37abb649	2.0469672e-05
20	0x37029b76	7.7848e-06
21	0x3784cac9	1.5830055e-05
22	0xb6cd8d42	-6.1259207e-06
23	0xb73cb0f9	-1.1246878e-05
24	0x384cce70	4.882965e-05
25	0x37279bef	9.990282e-06
26	0x36bb3666	5.579367e-06

exp_avg_sq f4 [3, 3, 3]
0	0x37b6d946	2.1797267e-05
1	0x38187b36	3.6354373e-05
2	0x38b950de	8.83655e-05
3	0x36ef41fb	7.130436e-06
4	0x371a5179	9.198085e-06
5	0x372340bc	9.730629e-06
6	0x37e4406c	2.7209717e-05
7	0x380b9290	3.327668e-05
8	0x38078a3e	3.2315256e-05
9	0x36d95c6e	6.477864e-06
10	0x35f63117	1.8342715e-06
11	0x3765b79c	1.36922135e-05
12	0x38b12651	8.447155e-05
13	0x38e4392c	0.00010882536
14	0x38f4dd02	0.000116759926
15	0x3712c475	8.748019e-06
16	0x3725bacc	9.878258e-06
17	0x3727e4f1	1.000728e-05
18	0x340a62a5	1.2888138e-07
19	0x35fb46cf	1.8721565e-06
20	0x36984771	4.53827e-06
21	0x36b8ef74	5.5115033e-06
22	0x348cdc59	2.6237356e-07
23	0x376713ce	1.3773284e-05
24	0x35ad5d00	1.2916571e-06
25	0x35682754	8.6483965e-07
26	0x353f3b5a	7.123941e-07

exp_avg f4 [3]
0	0xb8b3261e	-8.542485e-05
1	0x3ad9b3dc	0.0016609388
2	0x36da8b96	6.513156e-06

exp_avg_sq f4 [3]
0	0x3916310a	0.00014323383
1	0x39f484b4	0.00046638178
2	0x38f8f2ce	0.000118707874

exp_avg f4 [3, 3, 3]
0	0xb8f69e63	-0.00011759696
1	0xb9cc4693	-0.00038962494
2	0xb86e3ead	-5.6801993e-05
3	0x38495a02	4.800596e-05
4	0xb99717bd	-0.0002881865
5	0xba7a0aed	-0.0009538371
6	0x392849cf	0.00016049224
7	0x39a35e8b	0.00031160223
8	0x38dee370	0.000106281484
9	0xba0010c7	-0.00048853125
10	0xb9981a9b	-0.00029011522
11	0x382f8d44	4.1854815e-05
12	0x39c5cbea	0.00037726696
13	0x3923b312	0.000156116
14	0xbaa0cb2b	-0.001226758
15	0xb9b5b1af	-0.00034655395
16	0x389c2caf	7.4469826e-05
17	0xba004509	-0.00048930995
18	0xb9104c0f	-0.00013761244
19	0xb97db497	-0.00024195235
20	0x39071443	0.00012882151
21	0x39376746	0.00017490712
22	0x39109a51	0.00013790397
23	0xb988ddd3	-0.00026105213
24	0xb94f03f7	-0.00019742535
25	0x39a60c90	0.00031671347
26	0x39573874	0.00020525028

exp_avg_sq f4 [3, 3, 3]
0	0x37eded1f	2.836302e-05
1	0x382a2d16	4.0573148e-05
2	0x3825bb86	3.951371e-05
3	0x36e3c24f	6.7877477e-06
4	0x379260ef	1.7449694e-05
5	0x3880ba9a	6.138273e-05
6	0x36f7155c	7.36366e-06
7	0x36edb41a	7.084117e-06
8	0x37839fb2	1.569078e-05
9	0x39207ef1	0.00015306078
10	0x39e1cfc1	0.00043070133
11	0x3a614029	0.00085926295
12	0x3829456d	4.0357398e-05
13	0x384bd193	4.8594153e-05
14	0x391fd5fc	0.00015243137
15	0x38ef01eb	0.00011396765
16	0x390c9f98	0.00013410894
17	0x3939952f	0.0001769855
18	0x37cc50e8	2.435637e-05
19	0x388f648e	6.837501e-05
20	0x394489d1	0.00018743357
21	0x36358f38	2.7054466e-06
22	0x36d9cedc	6.4911856e-06
23	0x37606b01	1.3376354e-05
24	0x37c0da88	2.2989945e-05
25	0x371a514a	9.198042e-06
26	0x36b04c69	5.254104e-06

exp_avg f4 [3]
0	0x39afd26f	0.00033535386
1	0x3a882ede	0.0010389944
2	0xb8f5d4f2	-0.000117221745

exp_avg_sq f4 [3]
0	0x392af35b	0.0001630312
1	0x3ac9475d	0.0015356351
2	0x3981aaa9	0.0002473195

exp_avg f4 [1, 3, 3]
0	0x39ce91f5	0.00039400128
1	0x3894cc57	7.095251e-05
2	0xba9e1ec5	-0.0012063613
3	0xb937d1e6	-0.00017530433
4	0xb834294e	-4.2953812e-05
5	0xbb0ec72e	-0.00217862
6	0x388e7bcd	6.794147e-05
7	0x39ecbf14	0.00045155792
8	0xb98659b9	-0.0002562532

exp_avg_sq f4 [1, 3, 3]
0	0x38b98dd3	8.847904e-05
1	0x39e168c3	0.00042993398
2	0x3aa1c189	0.0012341003
3	0x3af0e071	0.0018377436
4	0x3b8688f6	0.0041056825
5	0x3bc386a9	0.0059669805
6	0x379f3147	1.8977224e-05
7	0x38bbd21f	8.955993e-05
8	0x3950e02b	0.00019919935

exp_avg f4 [1, 3, 1]
0	0xbb76f331	-0.0037681574
1	0xbbe4952f	-0.006975792
2	0x39a953d6	0.00032296655

exp_avg_sq f4 [1, 3, 1]
0	0x3c4a3f92	0.012344258
1	0x3b4859d2	0.0030571115
2	0x3aa65a5d	0.0012691725
