benchmarks/.darts/untrained_models/torch_model_run/model.pth.tar (torch, 46071 bytes, 18 tensors)

weight f4 [3, 1, 3]
0	0xbe8e365d	-0.2777585
1	0x3db25518	0.087076366
2	0xbe9ea226	-0.30983084
3	0x3ea3498e	0.31892055
4	0x3e52b854	0.20578128
5	0x3e97f416	0.2967841
6	0x3f078646	0.5293926
7	0x3f04571c	0.5169542
8	0xbec73ccf	-0.3891358

bias f4 [3]
0	0x3e55a038	0.208619
1	0x3e6f5548	0.23372376
2	0xbdeef960	-0.11668658

weight f4 [3, 3, 3]
0	0x3cf8d230	0.030373663
1	0x3e541272	0.20710161
2	0x3dac56e0	0.084150076
3	0xbe95f41e	-0.2928781
4	0x3e3c7cb6	0.18406948
5	0x3d9a7fcc	0.075439066
6	0xbe35e048	-0.17761338
7	0x3ea528c3	0.3225766
8	0x3e882819	0.26593092
9	0x3e43da5a	0.19126263
10	0x3e35ce82	0.17754558
11	0x3e92e401	0.28689578
12	0xbdcce7f6	-0.100051805
13	0x3ceff280	0.029290438
14	0x3e77add2	0.24187401
15	0x3d449e60	0.0480026
16	0xbdfb6e76	-0.12276928
17	0x3e7c3902	0.24631122
18	0xbdab024c	-0.083500475
19	0x3e81ac63	0.25326833
20	0xbe6470b3	-0.22308616
21	0xbe6f47bb	-0.23367207
22	0x3d97fff4	0.07421866
23	0xbddcaee6	-0.10775547
24	0x3e8e8e2f	0.27842852
25	0x3dc4b7c4	0.09605363
26	0xbe6c45d0	-0.23073506

bias f4 [3]
0	0xbe8b546b	-0.27212843
1	0x3e6af2c2	0.22944167
2	0xbe3fb960	-0.18723059

weight f4 [3, 1, 1]
0	0x3eda9444	0.42691243
1	0x3e343e88	0.17601979
2	0xbf224c88	-0.6339803

bias f4 [3]
0	0xbf327e6a	-0.6972414
1	0xbf196c5a	-0.59930956
2	0xbf023218	-0.50857687

weight f4 [3, 3, 3]
0	0xbe447d3b	-0.19188397
1	0x3eaa98ed	0.33319798
2	0xbe272273	-0.16321735
3	0xbd91a164	-0.07110861
4	0xbe86c3e7	-0.26321337
5	0xbe57e0a6	-0.2108179
6	0x3e88d011	0.26721242
7	0xbd70b608	-0.05876735
8	0x3ea79797	0.3273284
9	0x3ea70199	0.32618406
10	0x3e3bc21a	0.18335763
11	0xbc55a580	-0.013039947
12	0x3bb717c0	0.005587548
13	0xbe98c2fa	-0.29836255
14	0xbe8f87de	-0.28033346
15	0xbe926edc	-0.28600204
16	0x3ca0b830	0.019619077
17	0x3d57faf8	0.052729577
18	0xbdacdccc	-0.08440551
19	0xbe049186	-0.12946138
20	0x3dff4a30	0.12465322
21	0xbe93be0e	-0.28855938
22	0x3d2c03a0	0.041995645
23	0xbc4c22a0	-0.012459427
24	0x3acbb400	0.0015541315
25	0x3d3dc978	0.046334714
26	0x3e86032f	0.26174304

bias f4 [3]
0	0x3e5456c6	0.20736226
1	0x3e622b7a	0.22086897
2	0xbdfff8ec	-0.1249865

weight f4 [3, 3, 3]
0	0x3cdd1550	0.026987702
1	0x3e2c6eb2	0.16839102
2	0x3d412968	0.04715863
3	0xbea73d9e	-0.32664198
4	0xbe8759d4	-0.2643572
5	0xbe47c270	-0.19507766
6	0x3dbfffd4	0.09374967
7	0x3e15828e	0.14600584
8	0x3e16589e	0.14682242
9	0x3d4613e0	0.048358798
10	0xbe9c0a93	-0.30476817
11	0x3e93fa49	0.2890189
12	0xbd126658	-0.035742134
13	0xbe643d73	-0.22289066
14	0x3d351bc8	0.044215947
15	0x3e7b808e	0.24560758
16	0x3da7c96c	0.08192715
17	0xbe85222f	-0.26002643
18	0xbe63f408	-0.2226106
19	0xbe53cfd8	-0.20684755
20	0xbe975f4c	-0.29564893
21	0xbe1aab86	-0.15104493
22	0xbdc00090	-0.09375107
23	0x3dda4224	0.106571466
24	0xbea2a74e	-0.31768268
25	0xbe194b18	-0.14970052
26	0xbe39aec3	-0.18133073

bias f4 [3]
0	0xbe14e14b	-0.14539067
1	0x3e4fc3f6	0.20289597
2	0x3cb148d0	0.021641165

weight f4 [3, 3, 3]
0	0x3d22d1c8	0.039750844
1	0x3ea3cde9	0.31993034
2	0xbe104533	-0.14088897
3	0xbea81432	-0.32827908
4	0x3c0f00a0	0.008728176
5	0xbeaa40c2	-0.3325253
6	0xbe8082de	-0.25099844
7	0x3e79aeae	0.24383041
8	0x3e8e42d5	0.27785364
9	0xbe675fa6	-0.2259508
10	0xbe4f831b	-0.20264857
11	0xbdca279c	-0.09870836
12	0x3d936e0c	0.07198724
13	0x3e419cae	0.18907425
14	0x3ea58c3d	0.32333556
15	0x3d4ebcb8	0.050472945
16	0xbea66053	-0.32495365
17	0x3deeb4e0	0.11655593
18	0x3c6f8d60	0.014621109
19	0xbe0dad0e	-0.13835546
20	0x3e7edab2	0.24888113
21	0x3e0cf86a	0.13766637
22	0x3e1c244a	0.15248218
23	0xbe98e7f8	-0.29864478
24	0x3bc58d00	0.0060287714
25	0xbd3a37b8	-0.045463294
26	0x3e3d6292	0.18494633

bias f4 [3]
0	0x3e8a8efd	0.27062216
1	0x3e7a69de	0.24454448
2	0x3e520222	0.20508626

weight f4 [3, 3, 3]
0	0xbca5c510	-0.020235568
1	0x3e0c6358	0.13709772
2	0x3d7348f8	0.05939576
3	0xbd688108	-0.05676368
4	0x3e071c70	0.13194442
5	0x3cec48c0	0.028843284
6	0x3e58247e	0.2110767
7	0x3e8aa63d	0.27079955
8	0xbd090400	-0.03345108
9	0x3e874e51	0.26426938
10	0xbea8abcc	-0.3294357
11	0x3e34f502	0.17671588
12	0x3e791072	0.2432268
13	0x3e8a80b9	0.27051333
14	0xbe69cdab	-0.22832362
15	0xbbae3600	-0.005316496
16	0xbd5aec38	-0.053447932
17	0xbe7ca80b	-0.24673478
18	0xbe1ab723	-0.15108924
19	0x3e14701a	0.14495888
20	0x3d777fd8	0.060424656
21	0x3db3a584	0.08771804
22	0xbe87e922	-0.26545054
23	0xbdb87b3c	-0.0900788
24	0x3e6fc41e	0.23414657
25	0xbcd9aa90	-0.026570588
26	0xbe354a6b	-0.1770417

bias f4 [3]
0	0xbea56bac	-0.3230871
1	0x3e5320c6	0.20617971
2	0x3dbc8bf4	0.092063814

weight f4 [3, 3, 3]
0	0xbe3e498b	-0.18582742
1	0xbe5b5738	-0.2141999
2	0xbdbca126	-0.09210424
3	0xbe73cc38	-0.23808372
4	0x3e0ee53a	0.1395463
5	0xbd875b70	-0.06609237
6	0x3e3ec122	0.18628362
7	0x3dc7db8c	0.09758672
8	0x3eaa22b3	0.33229598
9	0xbe2b3d00	-0.16722488
10	0x3d82be30	0.06383932
11	0xbe75575b	-0.23959105
12	0xbe4f7670	-0.20260024
13	0x3c3cac00	0.011515617
14	0xbe7caa5b	-0.2467436
15	0xbe43d0e0	-0.19122648
16	0xbcba3900	-0.022732258
17	0xbde9a106	-0.11407666
18	0x3c55f7e0	0.013059586
19	0x3d081578	0.0332236
20	0xbe772496	-0.2413505
21	0xbea5fa83	-0.32417688
22	0x3d829864	0.063767225
23	0xbe698e83	-0.2280827
24	0xbe46a02b	-0.19397037
25	0x3e1173b6	0.14204296
26	0x3e97ec75	0.2967259

bias f4 [3]
0	0x3de7cbe4	0.11318186
1	0x3e52b84a	0.20578113
2	0x3cc1d310	0.023660213

weight f4 [1, 3, 3]
0	0x3e686592	0.22694996
1	0x3e1a9550	0.1509602
2	0xbe3cc7fe	-0.18435666
3	0xbda468a4	-0.08027771
4	0x3c1cc600	0.009568691
5	0xbe40901b	-0.18804972
6	0xbd9c15cc	-0.07621345
7	0x3e99352d	0.29923382
8	0x3d591de0	0.053007007

weight f4 [1, 3, 1]
0	0xbf0879ee	-0.5331105
1	0x3e109b48	0.14121735
2	0x3e25ccc0	0.16191387
