benchmarks/saved_models/saved_models/trained_RNN_Lorenz_granularity100.pt.ckpt (torch, 72199 bytes, 10 tensors)

rnn.weight_ih_l0 f8 [100, 3]
000000 b8 1f 19 9e 38 20 a8 bf e8 e5 51 83 0a 8d b0 bf
       -0.04712082796009959 -0.06465211587956043
000010 4b 30 77 02 26 8f b0 3f 41 84 56 c1 fa 4c d2 bf
       0.06468427238650169 -0.2859484565797779
000020 95 06 d7 86 3e b8 c7 3f 4f 5f 8f a3 01 09 a2 3f
       0.18531018814069414 0.03522496339399927
000030 ba db 08 23 52 79 cd 3f 29 c2 b1 1e 3e 7f c2 bf
       0.2302649184291264 -0.14450813769100648
000040 d3 99 16 4d 51 36 c5 3f 40 43 65 2a 45 1e a7 bf
       0.1657201410682335 -0.04515281813167471
000050 76 5c b5 cb 87 13 d1 bf 4f 37 0c a2 29 6b d7 3f
       -0.26681704419519947 0.365915687799192
000060 91 9c 7e 35 7b 3c c7 3f 4b a8 a9 e4 47 ce cc bf
       0.1815332423404681 -0.22504519143268661
000070 e7 f1 06 c6 70 f5 bd 3f 79 63 eb 9f a5 c5 a0 3f
       0.11702637514731117 0.03275792672292872
000080 c9 6b b6 19 d2 dc c1 bf 2e d9 55 55 1f c3 cb 3f
       -0.13955141311165978 0.21689216295971775
000090 ed 23 62 be 7d 98 a0 3f ed f6 9a 61 4b 48 bd bf
       0.032413415422588666 -0.11438437588637003
0000a0 fc 85 17 e8 16 1b c2 3f df 8d e1 a9 d7 ce b5 3f
       0.14145170528995255 0.08518741509902082
0000b0 e7 44 f0 02 56 25 a3 3f 12 2d a6 8e 54 c1 d0 3f
       0.037394225939473995 0.2617999451692451
0000c0 7a fa 1d 6d 34 97 66 bf 95 d4 c6 e6 bb ae 76 bf
       -0.00275764693736785 -0.005537733068583202
0000d0 a5 7c e9 97 27 e0 c1 3f ce 44 88 09 16 f8 c0 bf
       0.13965315740185705 -0.13257098641819315
0000e0 5e 5c 6c d2 e9 6d c0 3f 36 e6 0d 5b 5c e1 c6 3f
       0.12835428976606783 0.17875246473322343
0000f0 d5 03 81 c5 9b 3d c7 bf ca c5 5f 60 30 11 c7 3f
       -0.18156764167545583 0.1802120657517164
000100 fa b9 be 31 a4 82 ae 3f 62 ad 23 d1 58 15 7c bf
       0.05959046466101721 -0.006856295529569097
000110 5d 50 c8 b2 cb 6e b0 3f 76 0c 36 31 13 3d d1 3f
       0.06419060816580342 0.269352720315687
000120 b3 ac f8 c1 0f 16 ac 3f 62 ad fa 2b d6 cb c9 3f
       0.054855816295764546 0.20153309962675353
000130 0b e5 22 09 c0 52 c2 3f 88 56 3b e0 1c a9 d4 3f
       0.14315033384426842 0.322821825958592
000140 b0 0b cc 3c ff e1 cd 3f 15 9f 03 f6 19 bc dc 3f
       0.23345938175779457 0.4489807989580055
000150 50 75 a3 82 b1 a9 a3 bf bb c0 7c 37 1d 2d b6 bf
       -0.03840403289516792 -0.08662588696165845
000160 c5 7c 32 ae 53 94 d3 3f 30 ee 50 f1 eb 21 d1 3f
       0.30592815410086543 0.2676954132655025
000170 04 fd dd 58 9e de 89 bf 04 a8 ec b0 2f 10 a0 bf
       -0.012631642424592922 -0.031373491618367694
000180 9c 65 94 34 de bd ba bf 7a 53 bf 6b 2b e4 c0 bf
       -0.10445965560611231 -0.13196318398572854
000190 17 72 f0 ba 6d 9b b7 3f f1 cb 80 a9 d4 33 aa bf
       0.0922154027361518 -0.051176686946199264
0001a0 03 37 32 e6 f6 7c a5 3f 50 24 dc d3 90 e2 b8 3f
       0.04196902809154148 0.09720711872445631
0001b0 b6 cd 8a a8 a0 71 d0 3f 23 dc 87 31 75 35 a5 bf
       0.2569352765960632 -0.041423475548008314
0001c0 bc 4e c3 c3 b8 2d d4 3f 1e aa b8 2f a9 e3 bf bf
       0.3152906333682315 -0.1245675794131462
0001d0 e7 07 bf c8 65 17 c8 3f 2f 3d e0 47 68 8c c7 3f
       0.18821403791486022 0.18397239217345304
0001e0 ea b9 f1 36 98 36 c3 bf 94 ad 70 ba 40 5d c2 3f
       -0.15010359461616868 0.14347085097811585
0001f0 05 86 65 65 1f 2a c5 3f cb ce 8d 6d 99 98 a3 bf
       0.1653479809856863 -0.03827361547783211
000200 ca cb d1 a2 8a ef a9 bf c7 6a 81 b2 bc 22 cf 3f
       -0.050655681968144586 0.24324759212580302
000210 fb 14 6c a1 aa 48 92 bf 1d 1a af 8b cc 0c ad bf
       -0.017855325796536353 -0.056738273669499
000220 03 33 10 f5 32 b0 bd 3f ed 83 7a 89 58 f4 d9 3f
       0.11596983416547961 0.40553868699686185
000230 dd c9 b6 66 f6 82 9e bf e0 95 b6 24 81 22 a6 bf
       -0.02979645730892765 -0.04323199818763235
000240 dc 60 18 9e e4 a2 b9 bf bc 95 2e 71 2b 60 b4 3f
       -0.10014180049654747 0.0795924331019568
000250 03 c7 dd 14 57 52 d1 3f 35 9c de 12 bc 19 b1 bf
       0.27065064466215477 -0.06679892979319464
000260 18 fb aa 05 1b 39 c5 bf 3c 62 b8 26 66 80 a4 bf
       -0.16580522324326163 -0.040042106844513786
000270 d7 7f dc 54 7f 15 b4 bf 5b 93 46 f0 a1 b6 b5 3f
       -0.07845302411851605 0.08481800190072646
000280 c3 ca 07 ba 9b 00 93 bf 1d 06 6a 5b 42 90 c1 3f
       -0.01855700800838168 0.1372149416311438
000290 61 8f 16 e1 82 82 be 3f 8e ae 34 81 5d 67 b2 bf
       0.11917894358935889 -0.07188972858846851
0002a0 3c a3 ef f0 98 83 a0 bf ca 29 ce ef e0 97 c5 bf
       -0.0322540086852485 -0.1686974688457908
0002b0 0d 33 2e 05 2d 4a a3 bf a3 8f 9e 5e 6c 88 a4 3f
       -0.03767529190290562 0.040103327322213354
0002c0 e8 3e 05 94 8b c8 ad bf 66 1a 29 63 d4 03 97 bf
       -0.058170663660915 -0.02247554640987417
0002d0 77 50 66 dc 67 cc cb 3f 44 b7 a2 4b ec 1b c1 bf
       0.2171754671259156 -0.133664643222284
0002e0 5f f0 5d 66 62 bc 99 bf 3c 3b 7e 83 e8 8f 84 3f
       -0.025132691858275154 0.01004010821614331
0002f0 36 02 34 8a 91 74 b1 3f 14 13 e4 4d f0 95 9c 3f
       0.06818494438267284 0.02791572070511268
000300 41 7e 29 dc ae 77 bb 3f 4b a4 8e 89 70 34 c7 bf
       0.10729496836710785 -0.18128782955798992
000310 eb 6f 69 0f 98 87 d2 3f 0f b0 31 94 70 47 ca bf
       0.2895260000711903 -0.20530516849555666
000320 0a ba 36 77 17 2b ac bf c6 88 d3 9d 97 f5 b5 bf
       -0.05501626329656879 -0.08577869036847394
000330 cb 64 ab 80 83 1d c8 3f 89 ce 66 4b ac 32 c7 3f
       0.1884006860989643 0.18123391801565372
000340 ed 3e b6 a4 ce 34 bb 3f fc fd 55 01 1f b3 b5 bf
       0.10627452393805088 -0.08476442129721556
000350 c0 56 bb 53 8a 77 b4 3f 70 14 6a ad 24 a5 a3 bf
       0.07994904083474363 -0.03836931816935241
000360 0e 1f 53 fe 72 dc cc 3f 6b 9d f9 70 64 bf a5 3f
       0.22547757547567254 0.042475832739735285
000370 6c 3d 6c 3d e1 25 c1 3f 4a 99 ad 51 d1 7e 70 bf
       0.13396850108299974 -0.004027192738112648
000380 a4 88 2f e7 5f a6 cd 3f b8 3c 0d 5d 39 fd 6b bf
       0.23163985050547808 -0.0034166450863391783
000390 e5 54 91 8d 9e 7f d0 3f 85 91 f1 78 7e 61 ad bf
       0.2577892668244444 -0.057384445441843325
0003a0 d6 a6 e8 7c 1c b4 c3 bf c6 98 47 57 f8 99 d0 bf
       -0.15393406008779803 -0.2593975879993987
0003b0 f9 c1 81 5e b5 7d a0 3f 32 46 e1 2b c5 68 be bf
       0.03220907953880565 -0.11878616639412412
0003c0 47 01 1d 7b 32 fb b5 bf 92 dd b4 90 68 50 99 bf
       -0.08586421495147532 -0.024720796425041387
0003d0 77 72 69 67 6c 35 9f bf a5 f7 01 51 98 4d 81 bf
       -0.030477231799852036 -0.008448781940611225
0003e0 26 e6 b5 2e cb 18 b8 bf 93 87 9a 93 12 74 ae 3f
       -0.0941283215560352 0.05947931339075221
0003f0 76 93 9e ad 80 72 a4 3f d8 8d 23 05 bb 45 b0 bf
       0.039936085885790826 -0.06356400371037496
000400 7f ac f1 f5 61 ab 80 bf f2 d3 11 03 a7 f4 9f bf
       -0.008139386480442433 -0.031206712305408453
000410 21 56 18 34 94 cb 79 3f 4f e6 38 36 dd 6e 8a bf
       0.0062976636122775995 -0.01290676900599688
000420 e4 7e b3 38 04 4c c2 3f 02 5c 2a 75 35 48 a8 3f
       0.142944839178191 0.04742590956919203
000430 85 2a e0 7b fe 7a c7 3f 24 86 6a 28 95 62 b6 bf
       0.18344098137488998 -0.08744175183030528
000440 3b e8 1b 32 d4 70 b5 3f 46 89 90 a1 b2 2e ae bf
       0.08375288222660597 -0.05895002577041679
000450 01 27 a1 d9 95 18 b1 bf 62 46 2e b1 75 16 d0 3f
       -0.06678139270038842 0.2513708334236978
000460 6a 82 d4 54 27 1e af 3f 89 19 e2 c6 ac a5 b1 3f
       0.060776929002035754 0.06893424850031783
000470 b5 c9 42 cb 22 14 9a 3f ad ce c9 78 16 71 80 3f
       0.02546743741613407 0.008028197823683436
000480 6f f3 c3 99 37 29 94 bf 81 1f 94 03 ad b5 9c bf
       -0.019688481102082486 -0.02803678831426693
000490 bd 2d 82 23 42 47 a1 3f 46 84 d3 9f b3 a2 c2 3f
       0.033746783098731005 0.1455902605439709
0004a0 cf 61 25 54 68 53 c2 bf 2f 3e ae 91 19 73 a7 bf
       -0.143170395934034 -0.04580001738861161
0004b0 e4 be 84 50 1b 97 ba bf e4 9c b3 b2 b0 9b c3 3f
       -0.10386820522102941 0.15318878865875896
0004c0 bd 01 80 36 33 13 af bf 90 0b cb c9 58 64 c6 bf
       -0.06069335975917365 -0.17493734219723622
0004d0 e5 a3 50 1f 05 31 c3 3f bc 8a 3a 27 a4 0b b2 3f
       0.14993347195675635 0.07049013097506934
0004e0 a6 c0 d2 ef ff f0 c0 3f b0 14 df bc d8 79 72 3f
       0.13235472879523974 0.004510733253430363
0004f0 55 51 11 d3 f0 16 a2 3f b1 f2 9d 85 d6 e8 81 3f
       0.03533127380856863 0.008744884445826303
000500 e6 91 bb b2 ea 20 b0 bf 61 36 fa 49 cc d1 bd 3f
       -0.06300227035132586 0.11648251348580053
000510 32 40 0c 0c 0c e5 a1 bf 5c 51 7a f0 f1 68 a5 3f
       -0.034950615378079766 0.04181629238624637
000520 e2 3a 55 a8 e0 94 b6 bf e5 48 46 aa b6 c6 a2 3f
       -0.08820919141474406 0.03667231396242857
000530 e0 d8 25 f6 b4 cc b3 bf 16 14 71 b0 92 67 a3 3f
       -0.07734232911556971 0.037899574316306125
000540 b4 8f 2b 9f c6 18 b9 3f 62 b8 be bd 71 5c b0 bf
       0.09803429971685668 -0.06391058809706032
000550 ed ec 74 79 fb 4d 96 bf 12 3e 3f 8d ec a2 c5 3f
       -0.02178185395062553 0.16903454682186286
000560 fb f2 0b 18 7e 89 b3 bf 55 92 79 9f fa ae bc bf
       -0.07631671988560733 -0.11204496758870992
000570 70 54 5b d2 f6 7f b4 bf 31 b2 8c b7 0e a8 99 3f
       -0.08007757793105141 0.02505515094087424
000580 cb 35 54 99 e2 09 b7 3f 14 af e8 ce ba 39 b6 bf
       0.08999458545095888 -0.08681838561522809
000590 90 6b 09 88 69 42 bb bf f2 aa 7a 93 9f 64 d0 bf
       -0.10648212023936154 -0.2561415615297583
0005a0 a1 0f b7 7b 68 9c b8 3f d1 c2 7b 69 3f cb ae bf
       0.09613659878146887 -0.060144406916042954
0005b0 23 a1 46 e2 cf 16 b0 bf 87 e7 9c 97 7e c0 d6 3f
       -0.06284808420480607 0.35549893194149046
0005c0 9c 7a 92 3e d4 b2 99 bf 26 ee 16 b4 67 f5 b9 3f
       -0.025096241301634778 0.10140083452909518
0005d0 03 42 46 2f 0c b4 bd bf aa 7e 58 28 e7 75 af 3f
       -0.1160285582939267 0.06144640319348345
0005e0 b3 bf e2 bd 82 b5 c7 bf 30 ce 1d 5e 40 ea 86 3f
       -0.1852267672707036 0.011188986656384875
0005f0 a6 5c 98 73 00 1e 7a bf b8 29 0e 96 2d 80 b4 3f
       -0.0063762681616232105 0.08008084214649258
000600 d2 3b b1 dd 9b 6c 9b bf 40 76 78 16 30 65 b8 bf
       -0.02678149738886388 -0.09529400395009535
000610 87 1a a6 8f 1c 32 b8 bf 38 a1 7c 04 03 7d 89 3f
       -0.09451464182903112 0.012445472311427438
000620 74 6b e4 c4 45 85 9f bf 80 d0 d7 93 b2 ff bb bf
       -0.030781831877088675 -0.10937038526009424
000630 51 e7 7b c4 64 19 a8 bf 6e 3d ad 48 0e 74 9e bf
       -0.04706873796926792 -0.029739592729411006
000640 f3 a0 4e 38 1d 0b a8 3f 8c 15 7b b2 f4 24 86 3f
       0.04695979416220721 0.01081267518692177
000650 7d 74 91 fc e5 c7 60 bf 79 4e c7 4d ce 0e b1 3f
       -0.002048443977896995 0.06663216971292653
000660 7d 42 65 e2 e2 82 91 bf 39 ab a1 e9 2a 3c a4 3f
       -0.01710085398491622 0.039521542567703745
000670 2e 22 59 4c e6 4d a6 3f 1a 2e 54 4e 0f 75 d0 3f
       0.04356307680115311 0.2571447625093427
000680 3d 90 c3 55 9d 82 b3 bf 42 6c de 4d 4b 4c c7 3f
       -0.07621177047582335 0.1820158128947203
000690 e6 db 7b bf 8a 74 d2 3f 6f 19 af 27 c9 49 8e bf
       0.2883631582221241 -0.014789172671851173
0006a0 ef 56 43 53 25 3a b0 bf 91 cf c8 1d e0 ef b9 3f
       -0.06338723452367011 0.10131645896109222
0006b0 37 e3 3f 9b 93 83 a2 bf e2 e9 c4 10 57 05 d3 3f
       -0.03616009969841232 0.29720093381516055
0006c0 95 d6 8f e1 89 9e c3 3f be 12 de 0c 9b 7b a1 3f
       0.15327571405184828 0.03414616138528491
0006d0 d9 90 fe 90 84 d0 c7 bf 4e 0c 0e ac 22 d1 b7 3f
       -0.1860509593944986 0.09303490353163221
0006e0 96 be 5d 57 e5 dc 88 3f 28 1a 01 7a b3 76 a1 3f
       0.012140075424866208 0.03410874237356537
0006f0 09 1c 41 9e c4 5d c4 3f b0 d0 f4 82 f5 d1 b0 3f
       0.15911157347929386 0.06570372054267426
000700 aa a2 75 af 62 ab c3 bf 15 f8 db d5 98 8b a3 3f
       -0.1536677700744538 0.03817441568934058
000710 3a 5b 62 a8 08 d7 94 3f c0 96 88 36 72 0f c6 3f
       0.020351538922649605 0.172346378925047
000720 5f 4e 21 9c 73 24 8a 3f e0 9d 04 84 bf 6f c4 3f
       0.012764838411533917 0.15966028162186685
000730 c6 01 c5 72 6a 17 d9 3f e6 fe e7 d5 b5 f2 b1 3f
       0.3920541878506153 0.0701097151977553
000740 f0 b0 e9 7f 27 24 ab bf 1c f4 62 15 62 76 c3 3f
       -0.05301021038471443 0.15205026668800847
000750 7f 50 73 ac e6 5c c7 bf b4 c3 c0 98 12 e1 a5 bf
       -0.18252261562759384 -0.042732792994122276
000760 d3 dc 78 2b 29 4d cf 3f 06 ea 7f bd 1f f6 b3 bf
       0.24454226133977972 -0.07797430397469193
000770 ad 71 e8 d7 32 ba b4 bf 14 59 a4 93 7b f7 c2 3f
       -0.08096616526785878 0.14817757329064618
000780 ab 63 8d f5 f1 7e c2 3f 3f d2 94 ec 45 d1 a2 bf
       0.14449905862673282 -0.03675287735896803
000790 ab b0 f3 82 a0 48 d3 3f 58 19 c8 a1 ec 6d a3 3f
       0.3013078001811304 0.03794803118585105
0007a0 7b 66 8a 9d 90 d3 c1 bf 29 70 dd 23 d3 be c4 3f
       -0.13926894848264113 0.16207350970478387
0007b0 26 a2 19 6a af 78 9e 3f b7 9c 8a fc f9 80 be bf
       0.02975725255092434 -0.1191555253559383
0007c0 5d ad e5 49 e6 5c ca 3f 0b 9d d9 aa be 7b b9 bf
       0.20596006973515105 -0.09954444571632252
0007d0 c7 4c e4 93 db 73 c2 3f 27 1f cf 8f b2 49 cd 3f
       0.14416069718627098 0.22881156942298128
0007e0 54 4d 5b 5f 20 1a c1 bf 5f aa d0 46 90 fe a5 3f
       -0.1336098161324154 0.042957790989323945
0007f0 9e 82 ef b4 17 c4 ce 3f 8e 92 1c ab 8a 82 bc bf
       0.24035927138085794 -0.11136690785913059

rnn.weight_hh_l0 f8 [100, 25]
000000 62 c5 99 d0 6a e7 c2 3f 0b fb 1b af b7 b5 c0 3f
       0.147687293868823 0.13054557848223455
000010 7a cc 9c a9 ce 68 97 3f df 6a b1 02 f8 d1 a5 3f
       0.022860745527577532 0.042617559746494164
000020 69 6b 57 06 1e 7e cb bf 5e 62 be 98 82 fb 9a bf
       -0.21478629407541952 -0.0263500600554799
000030 e7 7b 7d e3 1c 69 cc bf 02 7c 47 0d 6d 3c 9f bf
       -0.2219577894965987 -0.030503944335460893
000040 95 10 f7 8c 94 24 d3 bf 89 3e 04 b1 d4 d5 8f 3f
       -0.2991076828586839 0.01554456868373612
000050 a9 c5 6d 9d 9f 5b b1 3f 4f db aa 23 78 9a 8e bf
       0.067804313597455 -0.014943064297182977
000060 87 a5 72 c2 3a 34 be bf ea 2f 9e ef 84 a0 b7 3f
       -0.11798445937406231 0.09229307985350457
000070 cd 3f d3 37 a0 15 cc bf 42 62 45 21 39 8e d1 bf
       -0.21940996862258402 -0.2743056130325706
000080 99 a7 9f 0f bf f1 c6 3f 66 fd e0 d4 bd a3 b2 3f
       0.17925251257775868 0.07281099745977357
000090 a4 1d 4c ef 31 6a be 3f 4e c0 9f 10 21 65 9d 3f
       0.11880790798396973 0.028706089629793312
0000a0 fa fc 7d 22 e4 23 a2 bf 88 2c a4 f1 85 cf bf 3f
       -0.03543007775351188 0.12426030301519309
0000b0 06 6b 87 89 3d e3 9c bf 9a 57 8b c9 c4 89 d3 3f
       -0.028210603255369747 0.30528373415051535
0000c0 cd 9a 40 77 85 22 b2 bf 41 aa 75 d6 09 c0 d0 bf
       -0.07083925401148435 -0.26172109549830586
0000d0 38 f7 42 00 85 ab c1 bf b0 cd 03 cb 4c 35 c6 3f
       -0.13804686081669515 0.17350158608279065
0000e0 d9 0f a9 78 84 05 d1 3f 97 7f 9f 2d dc a5 e9 bf
       0.265961759407444 -0.80149659071684
0000f0 29 63 8b 71 5f b6 d0 3f 5b da a4 10 36 c5 af 3f
       0.2611311539490538 0.06205147698567678
000100 52 c7 4f f6 cc cd ac bf 22 04 05 7c ac 0a e2 3f
       -0.056257634227121614 0.5638029501207067
000110 75 31 59 5c 11 e6 d5 bf 75 7a 58 ad 40 a7 ab bf
       -0.34216722505950453 -0.05401041141543753
000120 16 47 02 cb 0c 35 5e 3f c6 e9 09 76 ca 01 b1 bf
       0.0018437027866053438 -0.06643357641033906
000130 62 0f 48 dd 8a 4c b7 3f 3d 8c 68 71 55 c5 cb bf
       0.09101169493083952 -0.21695964849013363
000140 8d 69 90 f6 30 19 b5 3f 46 29 d6 c3 06 8b b0 3f
       0.08241563815719229 0.06462137490431016
000150 fb d8 bb f2 72 f3 d4 3f f4 ea f3 de 76 8b ce 3f
       0.32735894875021615 0.23863111387603164
000160 a2 a7 fa 38 a8 91 a0 3f bc 71 43 6b 6f 5a bd bf
       0.03236127563043502 -0.11466118210541415
000170 05 b7 d4 3f 90 7e bb 3f 3f 48 b8 ae 4e c6 9d bf
       0.1073999553525163 -0.029076795019200793
000180 c2 4c ab b0 91 97 b1 3f 9c 27 39 77 48 e9 82 3f
       0.06871901095591951 0.009234014643101855
000190 22 25 e7 64 3e fc e2 bf ad 96 7c 02 dc 3f a6 3f
       -0.5932914706001251 0.04345595865588101
0001a0 f3 8a 85 ad bf a0 8e bf ac 14 81 f3 61 72 35 3f
       -0.014955041392288737 0.00032725230585512843
0001b0 db 25 b2 8d 18 72 d7 bf 3c 59 ed a8 d7 3b ad bf
       -0.36633886182297964 -0.057097186442364806
0001c0 51 07 39 94 1d a6 b5 bf 44 61 2b d2 93 27 cb bf
       -0.08456597202987594 -0.21214530718021696
0001d0 e3 d7 1c 35 07 f0 e1 3f c2 95 f1 88 3c 12 a9 3f
       0.560550311790163 0.048967258183249665
0001e0 31 fe 13 9c 3b 50 93 bf ee 0e 15 1e 41 19 9c bf
       -0.018860751534701407 -0.02744008775813616
0001f0 69 8e ef df 2c 0d 96 3f 2c e4 7f a3 47 bd b7 3f
       0.021534634750322832 0.09273193113030292
000200 4d 1f 06 28 69 3e bb bf 6f 22 e5 18 84 01 d0 bf
       -0.10642106272837033 -0.2500925295940197
000210 2d 38 58 5a 08 23 bf bf ae b9 59 02 c4 42 c7 bf
       -0.12162830548933874 -0.18172502627153392
000220 bc db 38 97 40 3a b7 3f 60 f0 f4 46 77 d3 b1 bf
       0.09073260967203017 -0.06963296396583152
000230 6f 38 9f 72 d0 9b c6 bf ad b6 4d 6c 5e 51 d4 3f
       -0.17663007351660862 0.31746635986824395
000240 78 9e 83 c5 2d b1 bc 3f 2e bd de 66 26 a6 98 bf
       0.11207853386042099 -0.02407131197804551
000250 98 0e 17 c0 e7 20 d9 bf c7 8c 14 bd a5 73 bc 3f
       -0.3926333785895877 0.11113963953225713
000260 63 21 e6 85 6a 6f 96 bf 2a 2c 2d b0 a0 f6 cd 3f
       -0.021909393713515423 0.23408897974363302
000270 b2 74 ce 67 42 e9 cb bf 84 f8 da 42 68 50 c7 bf
       -0.21805601185488893 -0.18214133514806374
000280 b2 7b e9 08 db 75 c4 bf 73 af 2a df 4e 9a c2 3f
       -0.15984666762503036 0.14533410927594623
000290 bb 23 ad 02 3e ca cc bf a4 64 9f 0f 65 38 ca bf
       -0.22492194300346377 -0.20484603178809835
0002a0 5d d3 66 f8 99 1e ba bf fe f7 fa 03 95 13 c7 bf
       -0.10202944101804463 -0.18028509802201137
0002b0 7a d9 6a b3 36 ff d2 3f a3 b4 a2 8e 20 06 ce bf
       0.2968270065424786 -0.2345619865858782
0002c0 85 91 13 37 aa 1f d3 bf c0 44 7e 1f 22 a5 cd bf
       -0.2988076722961284 -0.2316019681716508
0002d0 1b ea ee d6 bc 5c ca bf 6a 88 63 60 70 a0 d6 3f
       -0.20595512862003393 0.353542417649925
0002e0 c6 65 1e ea 08 e7 cf 3f 1f c4 d8 e6 41 17 ac 3f
       0.24923812324122546 0.05486494009927178
0002f0 f9 5c 4f 10 e7 fa d3 3f b1 62 b0 a5 01 ef c7 3f
       0.3121888789441552 0.18698139753612034
000300 66 41 41 15 a6 08 bf 3f 01 a1 d5 84 59 fa b4 bf
       0.12122571963232573 -0.08194503300694934
000310 08 e2 23 aa b9 1d c9 3f 9c 86 58 2c 5f c2 c7 bf
       0.19621964271188141 -0.1856192556888815
000320 31 cc 11 d9 eb 09 df bf a4 36 2c df 9c 91 e6 3f
       -0.48498054693408493 0.7052749976007431
000330 74 35 04 eb 07 bc d8 3f f7 a2 75 df bf 5e e1 3f
       0.3864764971811703 0.5428161014980039
000340 35 a6 a4 ba 2b 47 a6 3f ef 5c 4d 9f 17 ed b3 bf
       0.04351174023970509 -0.07783649100507593
000350 c0 bb c2 ef d8 68 d0 bf 31 a8 04 57 87 c4 eb bf
       -0.25639937795761725 -0.8677403163503695
000360 e6 7c 1c 1f 09 c8 e3 3f f4 ff 75 9a 14 24 e6 bf
       0.6181684119837001 -0.6919043556990787
000370 e4 e4 51 7f 28 61 d1 bf 6f 24 2a 93 15 75 e2 3f
       -0.27155506547531005 0.5767925142582849
000380 c2 ca 2c 76 88 ca db bf 95 ce 5b 44 84 31 79 3f
       -0.43423663654827405 0.00615073839957216
000390 b6 67 9a 31 f9 38 de bf c5 d0 ba 1e d0 ea 83 bf
       -0.472227381172725 -0.009725213945195663
0003a0 b8 fe cd c7 d4 92 e3 3f ca 1f b5 62 45 49 cd 3f
       0.6116737272677346 0.22879855460837312
0003b0 93 08 39 68 f4 2e c8 3f 4b 73 c2 a5 68 de ea 3f
       0.1889329441929176 0.8396495091907153
0003c0 a9 18 6d ef c6 0b e0 3f a0 74 6b 48 77 c2 e9 3f
       0.5014376331607951 0.8049885191391191
0003d0 2a 22 4d 52 65 8b b0 bf a0 62 61 b5 af 15 e2 3f
       -0.06462701091107506 0.5651472609125285
0003e0 f0 2c ed 4d b2 8c ef bf b1 2b 95 be e6 31 d0 bf
       -0.9859248659135158 -0.25304573642341227
0003f0 4b 7c 92 30 f0 1e c3 3f e6 e6 ca 6c b4 61 ab bf
       0.14938166019143959 -0.053479803352684915
000400 2a 54 c8 c4 95 cb bf 3f 21 1b e9 d8 11 67 71 bf
       0.12420021108876314 -0.004248685565989147
000410 ce 20 7f 68 86 9b c1 3f 66 2f d4 bc 40 fb 2b bf
       0.13755874731419343 -0.00021348157171307696
000420 27 37 2a b1 70 f6 b8 bf 24 a7 9b 53 b8 1b df 3f
       -0.09751037907900849 0.4860668961033403
000430 ef 3f c1 7b de 5d 72 3f 86 a7 8f b4 3e 27 c4 3f
       0.004484051776742589 0.15744766060316467
000440 da 8e a6 45 92 66 c1 bf a6 66 9a b0 0c ef ae bf
       -0.1359427299586205 -0.060417553480147476
000450 3d c1 c4 97 fc 07 c9 3f 55 87 db 88 4d 55 c3 3f
       0.19555623446059114 0.15104073698517576
000460 41 6a 5d 1b 25 dd 5a bf c0 df ba 51 24 bd d3 3f
       -0.0016396391269696416 0.30841930371706994
000470 59 87 ad 7d 6d 70 c0 3f 2b e6 65 65 fa 61 d0 3f
       0.12843102108586882 0.25598010923531217
000480 66 78 ce c7 e6 ab a5 bf 4b 32 2e 3f e2 4e a5 bf
       -0.04232712925953379 -0.04161746045347011
000490 f2 7f 87 ea 18 93 a2 3f 59 72 2a dd 16 30 cc bf
       0.03627851355463453 -0.22021756934272466
0004a0 8e ec 92 e5 78 5a c3 bf e9 5a 15 84 46 e2 d6 bf
       -0.15119849404968416 -0.3575607576253064
0004b0 83 d6 18 43 56 73 b1 bf 2a 17 49 15 b7 6f d2 3f
       -0.06816615236388128 0.2880685527674013
0004c0 2c 93 14 e0 08 a2 c7 3f 5e 13 1d f4 99 44 c4 3f
       0.18463240567612027 0.15834354800804368
0004d0 53 ea 3d a5 d5 ff cf bf 51 19 99 02 af be 97 bf
       -0.24999495094728505 -0.023188337834903653
0004e0 86 6a 61 9e 5c 08 bf bf c4 10 ea d3 85 f3 bc bf
       -0.12122134081566047 -0.11309086250008976
0004f0 4c 53 8b a5 8a 1e 7b 3f 24 58 86 a8 fc c3 b9 bf
       0.006620923603539119 -0.10064677347540446
000500 32 08 41 06 00 ce c2 bf f2 46 97 d7 ca 88 b0 3f
       -0.14691162400601027 0.06458728564691876
000510 7f 37 b3 d2 00 62 cc bf 9a fe 55 9e 19 bf b5 bf
       -0.22174082077111376 -0.08494720569251016
000520 d1 45 5d 6d 72 38 75 3f 99 1b 4f 30 ef 79 e4 bf
       0.005180785161273475 -0.6398845618758627
000530 d6 cf 7d f3 6f d2 c1 3f 88 54 76 2b 4b 1a a2 bf
       0.1392345370219334 -0.03535685449166076
000540 28 a8 ab 54 c3 9a b8 3f 79 d9 e1 fb d7 20 5a 3f
       0.09611149613525127 0.0015947446077269874
000550 0f 2b 49 3e e5 26 c0 3f 55 26 39 2e e7 d4 cc 3f
       0.12618699590014912 0.2252472854327602
000560 28 a1 7e 93 e2 e6 b4 3f 86 24 d8 10 33 55 b5 3f
       0.08164802647536773 0.08333129082906696
000570 51 91 36 cc 01 a9 b1 bf 5c 77 3a dc cd c0 c8 bf
       -0.06898509250328756 -0.1933839154561906
000580 b5 d5 61 52 b8 f8 ce bf 7e ab eb 37 3c 63 98 3f
       -0.24196533224646335 0.023816052353974985
000590 45 b8 6a 7d aa b9 c5 bf 48 10 30 a9 ff bb d5 3f
       -0.16972857593413174 0.33959952852479036
0005a0 cf b1 3f 94 c1 6c c7 bf 86 36 6f 25 2b 1f dc bf
       -0.18300647486411356 -0.4394023767061771
0005b0 61 e5 6a 09 eb 2e bc 3f f6 07 95 79 58 d2 b6 3f
       0.11009091358109437 0.08914711921991611
0005c0 9c 01 e3 44 f1 b6 a8 bf 59 17 a0 f8 13 45 d6 3f
       -0.048270740183855326 0.34796618728465983
0005d0 cb e2 ce fe 37 5e d1 bf 04 74 d4 dd dd cc c0 3f
       -0.2713756550179311 0.1312520344880853
0005e0 f2 58 85 52 2b cf c9 3f ab 2b bc 83 fd 60 8a 3f
       0.20163480309810883 0.01288030679963533
0005f0 55 94 72 f2 0b c7 e0 3f 23 f7 21 d7 2a 3c d4 3f
       0.5242976889900414 0.31617232331324113
000600 89 c8 7b d8 9e de b9 bf d9 42 f9 1d 59 0e c9 3f
       -0.10105316910974883 0.1957503696781007
000610 ea 20 05 c4 9a 6e c6 3f 11 8a 7e e2 cd cb c7 3f
       0.17525038310328195 0.18590711173335753
000620 f2 ae 9e 48 3e b5 cd bf f1 d4 58 a5 b6 68 cf bf
       -0.23209360643283322 -0.24538310121139476
000630 6f 65 67 c6 9a 5c d5 bf 8d 0e 1f 1d 3e 60 b5 3f
       -0.3337771356142047 0.08349979601831077
000640 f6 fa cd 79 29 68 c3 3f e0 a8 8b 3c 3b 13 e0 3f
       0.15161627242556336 0.5023475821047008
000650 4d 62 0c 70 44 46 86 3f e2 ac ca 05 13 e6 bb 3f
       0.010876211804814373 0.10897940532111108
000660 6e 5e ea e0 63 d6 c8 3f cf 6b 3a 15 53 56 ad bf
       0.19404266817285837 -0.05729922899373429
000670 0a 8b a0 b1 17 5c b1 3f 29 89 5f 9f 72 22 d5 bf
       0.06781147085761688 -0.3302275234583641
000680 52 51 36 5f d8 5a e1 bf a4 05 25 3c c1 4f cb bf
       -0.542339502297674 -0.21337142407177823
000690 47 09 28 e0 5d 59 d7 bf 6d 42 72 1a 2a 95 b5 3f
       -0.36482951059601415 0.08430731912290819
0006a0 04 a9 b8 62 b4 2a e1 bf a6 a5 e6 b7 2b 75 c4 bf
       -0.5364629676962811 -0.15982576827563583
0006b0 2a cc 8b ea 2b 9b dd bf 9d 5f 42 d3 8b da da bf
       -0.4625959196557142 -0.4195890009955237
0006c0 00 46 37 47 a2 2a a5 3f 59 f4 ba 2e 8f 77 c4 bf
       0.041340895837162606 -0.1598986604857682
0006d0 d7 f0 e3 dd 8e 19 a9 bf e4 c7 21 83 a5 af 8a 3f
       -0.04902311762450189 0.013030331672982905
0006e0 35 33 cf 22 7d 06 d5 3f 06 39 2d b8 d2 64 d1 3f
       0.32852104567864454 0.27177875505448446
0006f0 f8 c2 25 75 78 b0 cf 3f 51 24 7a 04 2d 04 ea 3f
       0.24757295341580465 0.8130097472613987
000700 1a 8b dd 49 0e e3 c7 bf 1c 1d 36 6e ef 09 d0 bf
       -0.18661669356068772 -0.250606401089003
000710 d7 a0 f3 d6 d0 c9 d4 3f 43 b0 e2 1d 4c d4 cb 3f
       0.3248178576600486 0.2174163003850272
000720 f8 70 7e 75 b9 e9 cc 3f a2 d2 5c 6f 88 f5 82 bf
       0.22588270413405787 -0.009257379435078154
000730 4d db 62 2b a3 73 c3 3f ee e8 7e 88 e4 e6 a9 bf
       0.15196647280182632 -0.050589696561887595
000740 a4 90 43 ad 46 e3 b6 bf eb ad 5e fa 6d d5 95 bf
       -0.08940545778347314 -0.02132198181759108
000750 a1 0a 28 8d 34 35 c8 bf 92 ce 1b 16 98 18 69 bf
       -0.18912369625475825 -0.0030634851872209457
000760 9e f3 a2 ff 8d 1c b4 bf 80 35 43 18 9d 7c d0 bf
       -0.0785607098686811 -0.2576058136881656
000770 0e 33 98 d4 78 23 ae bf 1c 11 40 a5 52 41 93 3f
       -0.05886437983654079 0.018803874336314683
000780 13 87 49 d7 77 77 bb bf f9 9c 61 f4 0f a4 cc 3f
       -0.10729168897662715 0.2237567847507547
000790 1b 10 9d e3 97 e4 84 3f 48 f4 04 7f 44 2b 84 bf
       0.010201632150376885 -0.009848151327441226
0007a0 1c d9 bf 3f a9 ce b1 bf 45 13 6a 4a a2 1d cb 3f
       -0.0695596485746574 0.21184185632241728
0007b0 0b 9d 70 64 93 4d bc bf f3 2f 41 3b a0 da 98 bf
       -0.11055871202608018 -0.024271491638771136
0007c0 41 d6 f1 16 41 a8 c0 bf c9 de 17 2e 27 0a bf bf
       -0.13013471241326793 -0.12124867320369072
0007d0 62 2a fe cf 56 82 d6 bf 69 e7 29 4c 7a 89 c1 3f
       -0.3517052680187246 0.13700798720293086
0007e0 8a 89 15 43 de c0 bb 3f 01 da f3 37 c3 47 c9 3f
       0.10841168535038129 0.19750251991327164
0007f0 05 30 e4 8b 12 90 d9 bf f2 9e 45 e8 ce 7e c7 3f
       -0.39941848431840327 0.18355738011745576

rnn.bias_ih_l0 f8 [100]
000000 4a 92 38 2b 5d 2c da 3f c9 2f b2 7f 67 ae d8 3f
       0.40895776005553286 0.38564479322735373
000010 b2 b3 f5 8d bf 34 ab bf 32 74 fb 18 49 98 b5 3f
       -0.05313681228549373 0.08435494289320003
000020 af 14 83 03 cc 6d f8 bf fd b0 d3 81 3c ba d9 3f
       -1.5268058907688944 0.4019919650879869
000030 98 7f 8d 00 da db cf 3f 43 5b f8 5e 33 88 b6 3f
       0.24889683749188118 0.08801575726134296
000040 30 2b e5 ee 4e 9f f3 bf 87 bb 44 cd f9 0c e1 3f
       -1.2263936359256142 0.5328339585447431
000050 cf d2 20 47 57 6f c7 bf bd ea 0c ee 92 27 df 3f
       -0.18308535550172286 0.48679040190806316
000060 8e bc 9c 8d 29 f7 d9 bf 38 33 7a 10 0a 15 a2 3f
       -0.4057105906421804 0.035316767226595436
000070 0b 47 92 1d 66 d6 d5 3f b3 32 64 66 c7 d4 f4 bf
       0.3412108696730775 -1.3019479751266487
000080 df 32 33 88 bb 44 ae 3f 1f b2 bb f5 11 ca d0 bf
       0.05911813771817775 -0.2623333835352088
000090 9a 96 53 ef 29 42 ec bf 78 3c ea 9b e1 89 d1 3f
       -0.8830766367288618 0.27404060579369327
0000a0 6c d0 22 71 05 46 c3 3f 65 b4 62 fd 6f cf d8 3f
       0.15057437919824979 0.38766097778972713
0000b0 fb e0 99 ed fc 23 cf 3f 55 b1 8d 39 e1 8f c2 bf
       0.24328576661697085 -0.14501586256245483
0000c0 86 09 a2 f1 8f de c5 3f 10 26 f3 b4 a5 50 c4 3f
       0.17085456179126995 0.15871116004409247
0000d0 86 31 83 fd 68 4d ce bf 99 d8 0e e2 b0 36 c1 3f
       -0.23673736933268347 0.13448153532016674
0000e0 d8 0d ed aa 46 c5 b2 3f 12 e4 54 da 6e 56 b7 3f
       0.07332269356725563 0.09116261320458843
0000f0 1d 03 fa 33 3e 6a c8 bf 15 a7 70 76 7a 75 cb bf
       -0.19074227846069727 -0.2145226553268961
000100 5f 21 3b e9 cd e9 b2 3f 59 0e d5 53 72 19 95 bf
       0.07388007110706017 -0.020604883543695916
000110 22 a7 82 ee fd fe d1 3f 8c 20 ec 63 db 40 92 bf
       0.2811884717180978 -0.017825534795548978
000120 9a 12 31 52 d0 ef b7 3f 62 e6 c6 7c 66 34 da bf
       0.09350301748879489 -0.40944826302766135
000130 84 4d ed cf 70 e4 a3 3f ca 46 b8 ce 8d 97 b6 3f
       0.03885223901911686 0.08825002953406194
000140 2a b5 70 90 24 f0 c4 bf a8 d9 99 bf cd ac 44 bf
       -0.16357857754466326 -0.0006309513693867801
000150 0b 28 2c 4d d9 92 c2 bf 0c 5a 9b d7 a2 76 86 bf
       -0.1451064707583217 -0.010968467907713574
000160 75 5e 02 14 8a 12 d3 bf 82 76 07 58 ff 74 a0 3f
       -0.2980065532114858 0.03214261960577593
000170 e2 d4 1b e6 c4 6f c0 3f 28 f6 19 2f c0 d1 b0 bf
       0.12841092334534837 -0.06570054197251152
000180 21 56 97 2b 68 58 b3 bf cd 85 ca 1e d3 68 c4 3f
       -0.07556773246991401 0.1594489956233204
000190 ab 20 4f 3c 98 7f be 3f 8e f3 72 b2 5a 9a b6 bf
       0.11913444015874812 -0.08829275948205703
0001a0 02 44 bb 86 08 d0 b3 bf 2c f6 de e1 60 68 b3 3f
       -0.07739308633178157 0.07581143869807566
0001b0 54 e3 4c e8 79 0b d2 3f 4d 41 92 8c 89 46 ea bf
       0.2819504517133755 -0.8211105104001405
0001c0 5d 19 83 9a ab 18 d8 3f 73 9e a4 13 c5 7c c8 bf
       0.3765057572276385 -0.19130767306454607
0001d0 95 13 7b 69 bd 1d cd bf ec 80 c2 27 33 11 d1 bf
       -0.2274700894396601 -0.26667479403296457
0001e0 c6 cb db ff 48 73 c0 3f bd f4 18 16 2b cd e5 3f
       0.1285182236966575 0.6812949592200749
0001f0 87 21 3a 4f 1f f6 b2 3f b5 a0 48 b0 d6 c5 f6 bf
       0.07406802829985369 -1.4233004461366765
000200 d0 60 11 2b 15 66 b8 bf 8e 51 15 d2 52 0b dc 3f
       -0.09530765820943832 0.4381911326975335
000210 b9 31 e7 d3 e0 43 f4 bf e6 0b a0 65 23 89 d8 bf
       -1.2665718343224468 -0.3833702557023443
000220 41 62 48 a9 26 4f e9 bf 70 4c 7f f7 0f ef d2 3f
       -0.7909119898132034 0.295841209122222
000230 04 a6 11 73 06 b4 e8 bf 1e 54 d2 d4 a6 e3 b6 3f
       -0.7719757316055511 0.0894111890396094
000240 a5 a6 a3 c3 a9 42 ba 3f 5b 60 de bf 1f c7 c5 3f
       0.10257969881390723 0.17013928288065724
000250 e2 4b 5e 33 54 4d ca bf 1e 06 90 6d 4f fb c6 3f
       -0.2054848910161971 0.17954438066230777
000260 17 66 07 3e 48 56 c4 3f 63 fe f2 df 41 a5 d1 3f
       0.1588831236720558 0.27571150655783166
000270 a5 fc 26 87 f3 38 8a 3f 8e 97 bf 13 fb 62 c0 3f
       0.01280393844797196 0.12802065338399554
000280 dd 3d 3d 17 85 3f d2 bf b3 ac e9 be c1 70 b9 3f
       -0.28512694615798556 0.09937678252178976
000290 84 a4 fb c9 c8 e9 9e bf bd d1 2e 78 a3 d3 83 3f
       -0.03018869145208615 0.009681012253943128
0002a0 41 a7 48 a1 da 6e d2 3f e1 d7 79 99 61 13 c3 bf
       0.28801599264498995 -0.14902896875327
0002b0 3f 2e 48 25 d4 28 98 bf 7a 0d 1e 67 0e 8c c3 3f
       -0.02359324910689353 0.15271167788533174
0002c0 c8 a2 63 45 39 91 c0 3f 8a 56 ec a7 3d 11 d5 3f
       0.1294318760694948 0.32917729758023795
0002d0 2a b3 04 ec 01 c4 d9 3f 85 ad bb c6 9a 07 d0 bf
       0.4025883488528047 -0.2504641476395693
0002e0 b9 cb 69 27 05 cc bb bf ae ea cd 19 77 6e ce bf
       -0.10858185016858969 -0.23774613151529905
0002f0 3f 2c 5a 1f 29 fd b3 3f 90 1b 97 3b e6 35 c5 3f
       0.07808167472300996 0.16570737752610087
000300 72 de 79 ba a2 43 ba 3f 68 35 33 c0 16 0c da bf
       0.10259453823697998 -0.40698784608397043
000310 17 e8 50 3a cd 07 a0 bf b5 2b 4f a3 19 3e e1 3f
       -0.031309522026688956 0.5388305844911573

rnn.bias_hh_l0 f8 [100]
000000 4b 92 38 8b 67 cc d9 3f e7 2f b2 47 ed a5 d2 3f
       0.4031008586482911 0.29137737275664083
000010 c0 d9 fa 26 26 08 b9 bf a1 2e 12 5c d0 c9 9c bf
       -0.0977805943647132 -0.02811360895115789
000020 a9 14 83 23 9e 97 fb bf f9 b0 d3 b9 48 e7 de 3f
       -1.724516047209628 0.4828664602962501
000030 97 f3 d7 08 cf 43 84 3f 0c 5b f8 5e 93 60 b5 3f
       0.00989495988596349 0.08350487774474064
000040 2c 2b e5 6e 9a 47 f3 bf 78 bb 44 c1 eb 5e e0 3f
       -1.204981263336502 0.5115870260977848
000050 b9 d2 20 87 a2 99 c9 bf 6b 75 06 0f 58 42 e2 3f
       -0.20000106428201095 0.5705986302815921
000060 02 79 39 ab 99 45 ca bf 19 e6 c2 a7 78 23 ba bf
       -0.2052490316445486 -0.10210374923453748
000070 0c 47 f2 35 f5 8d d4 3f be 32 64 4c 3a 72 f2 bf
       0.32116441982462685 -1.1528876289404901
000080 4a 66 06 91 d5 f6 d1 3f 34 b2 bb bd 92 06 d3 bf
       0.28069056665990344 -0.2972761967528499
000090 98 96 53 ef 70 31 ee bf cc 78 d4 07 f2 af ce 3f
       -0.943535296854594 0.23974442846605937
0000a0 13 68 91 a0 d6 68 d1 3f b2 a3 15 eb e1 52 ab 3f
       0.2720238273665256 0.053366718241540836
0000b0 d8 3d cc a4 47 bc b1 bf a2 d8 c6 40 b7 61 d5 bf
       -0.06927917264351124 -0.3340891010842687
0000c0 ca 04 d1 e4 c0 d2 d4 3f a6 60 32 cf 5d c9 87 3f
       0.32536337228164014 0.011614544759410993
0000d0 10 39 f3 09 8c 22 a4 3f 42 3b 89 af 55 2d 99 bf
       0.03932607289753964 -0.024587000693198087
0000e0 10 79 89 ea 47 4c c1 bf d7 71 2a fd 07 23 ca 3f
       -0.13514040901186108 0.20419406758891398
0000f0 09 fa 0b 78 18 84 b2 3f c2 8e f5 98 d8 ce 81 3f
       0.07232811861829459 0.008695308845467212
000100 c2 de c4 7a 06 e4 bb bf 3d 5e 85 25 80 ea ca 3f
       -0.10894814011850953 0.21028138954237532
000110 f1 73 2a 68 1d c4 93 3f ff 7b 82 03 bf cd cb 3f
       0.019302806360986528 0.21721637412426273
000120 b1 76 e7 a6 55 32 c2 bf 68 e6 c6 90 b0 35 d0 bf
       -0.14216108941666541 -0.2532769597852167
000130 a4 ac 04 9f 9c c3 c1 bf ca 46 b8 2e 9a 66 b7 3f
       -0.13878209843219225 0.09140933647747854
000140 db 4a 8f 2f b9 44 c3 3f f9 99 bf 66 7e c5 c6 bf
       0.15053477117779476 -0.17790203110708072
000150 98 af a7 45 cc dc b5 3f df 94 0c 35 9b b0 b5 3f
       0.08540035915910804 0.08472604794640713
000160 4a 5e 02 04 c8 7b d0 bf be 44 fc 43 7a 16 b2 bf
       -0.2575550116684765 -0.07065548095512761
000170 3e a7 de f0 41 00 9e 3f 58 ec 33 7e df 16 a3 bf
       0.029297857595941716 -0.03728388228952245
000180 4e ab cb b5 97 df cf bf 4d 41 af 26 ef 2a 7a bf
       -0.2490110051797622 -0.0063886014786052716
000190 9c 7c c3 4e 62 9e 91 bf 20 7a 39 b9 39 52 c2 bf
       -0.01720574956641184 -0.1431343225876427
0001a0 00 a2 5d f3 46 73 c0 bf df 84 10 2f 0b 9b c2 bf
       -0.12851797946065346 -0.1453565578276885
0001b0 55 e3 4c 68 24 b4 d1 3f 4d 41 92 4c d6 a7 ea bf
       0.2766200083311124 -0.8329879279645326
0001c0 5e 19 83 4a 49 30 d8 3f 8d 61 5b ec 04 20 c6 3f
       0.37794716145108065 0.17285214939944318
0001d0 99 13 7b 31 47 8a c5 bf 37 3d a0 f0 5b a9 77 bf
       -0.16828241268208613 -0.0057767478374580105
0001e0 fb 5b de 1e 96 2a 9f 3f b8 f4 18 6a 46 6e e4 3f
       0.030435891756123806 0.6384613105980383
0001f0 88 bc 8b 91 44 14 aa bf bd a0 48 76 a9 c7 f4 bf
       -0.05093588139231381 -1.2987455959756027
000200 c1 7c ba 13 58 29 92 3f 92 51 15 8a 27 4f df 3f
       0.01773584003842355 0.489206204268407
000210 d0 31 67 60 c8 1d f1 bf e7 0b a0 e5 69 50 db bf
       -1.0697711721178287 -0.426783060305921
000220 3c 62 c8 cf 39 98 e6 bf 08 99 fe 46 e1 ef c4 3f
       -0.706082254243547 0.1635705563214247
000230 ea a5 11 7e 6e 94 ee bf 9c 2a 69 d6 9b c9 ce 3f
       -0.955619093159098 0.2405276104858175
000240 80 59 5c 3c ec a4 bb bf a0 c0 bc 3f 82 08 b3 3f
       -0.10798527215624709 0.0743485837563207
000250 e3 4b 5e 53 23 8c c7 bf 11 03 c8 4c 47 4f d4 3f
       -0.18396417208404534 0.3173387765710212
000260 d2 33 f1 43 13 d9 b4 bf b4 fc e5 e7 a3 b7 c4 3f
       -0.08143730553383868 0.16185425589717328
000270 e2 37 39 8c d5 19 da 3f a1 97 bf 83 5a 52 c2 3f
       0.407826792656918 0.14313823159244257
000280 e1 3d 3d 57 65 d3 d1 bf cf ac e9 56 7f 16 b8 3f
       -0.2785275794930993 0.09409328338522303
000290 0e 5b 04 36 ac ba 91 3f 1a da 05 4f 98 17 b6 3f
       0.01731366233533565 0.08629753045338653
0002a0 63 72 8a 14 0f 1f 9e 3f f0 af f3 92 bb 44 b8 bf
       0.029415355328284664 -0.09479877793972924
0002b0 7a 0b 52 69 90 bc b7 bf f1 93 0f 5f 2e f8 9f bf
       -0.09272100993443458 -0.031220173408559707
0002c0 5e 14 1d ab 36 7d 92 3f 7b 56 6c 5c d1 37 d9 3f
       0.018055776781029535 0.39403184915258976
0002d0 f8 65 09 f8 4e 1d cb 3f 58 4a 11 25 5b 52 bb 3f
       0.21183192359130465 0.10672540335625891
0002e0 91 97 d3 9e 38 36 a2 bf a8 d5 9b 83 82 96 bc bf
       -0.03556992472458299 -0.11167159760574086
0002f0 36 c4 a2 f5 63 f8 76 3f 82 1b 97 03 da 55 cd 3f
       0.00560797735867973 0.2291824834375938
000300 71 de 79 5a 36 57 bc 3f 48 d5 cc 80 06 42 b4 bf
       0.11070575436485243 -0.07913246769461069
000310 15 74 28 bd 39 00 b2 bf bb 2b 4f cb 3e 9c e1 3f
       -0.07031594150653604 0.5503229113468174

rnn.weight_ih_l1 f8 [100, 25]
000000 15 d7 81 58 d1 47 e9 bf 6c 09 59 44 db 1b f4 3f
       -0.7900168160110491 1.2568009061656893
000010 77 94 45 82 02 a3 88 3f 69 5c 76 32 00 1f ca 3f
       0.012029666519717914 0.20407106842023673
000020 1d f2 3b 28 99 a1 f0 bf eb 81 eb c2 83 8b dc 3f
       -1.0394527026793476 0.44601530108596305
000030 be ef 61 7b 55 61 e1 bf 5c b5 b0 84 56 6a e4 bf
       -0.5431315812888824 -0.6379807082754883
000040 0f 3f a9 fa 37 9b e2 3f 94 95 67 a7 9c ee e2 bf
       0.5814475913739175 -0.5916274327870945
000050 d0 39 20 35 d6 89 cd bf 21 64 88 2d 28 ac aa bf
       -0.23076894372975554 -0.052094703252983494
000060 7d d2 f1 34 c7 db d9 bf 39 6d b3 3e 76 54 d3 3f
       -0.4040391938245092 0.30203014491208396
000070 01 d1 cf 06 bf 25 dc bf 31 14 4c 85 03 53 e7 bf
       -0.4398038450738256 -0.7288835147343261
000080 c8 8c fa 8b f0 21 b9 3f d9 b0 15 1f 4f 6b e5 3f
       0.09817412774514189 0.6693492514728191
000090 86 b5 79 74 69 74 e2 3f 95 75 00 4c 43 47 db 3f
       0.5767104411039987 0.4262245409207364
0000a0 bf c4 bc 02 eb 60 d7 3f 11 77 75 ca 0a ef ce 3f
       0.36529040591546996 0.24166998754201832
0000b0 d5 d6 f0 b1 ea 4f d3 bf 34 39 16 37 00 64 eb 3f
       -0.30175273301152333 0.8559571338571801
0000c0 8b e5 2b ed 3f 6f dc bf 0f 0e 30 bb ba 29 f9 bf
       -0.4442901435973787 -1.5726878463764284
0000d0 a9 92 f7 47 6c 66 e2 3f 52 2d a7 5a 8d 65 a3 bf
       0.5750028043372214 -0.03788415652851519
0000e0 90 77 9a b6 34 da e2 3f fa 15 6e fa 33 5d f0 bf
       0.5891364637825394 -1.0227546484396712
0000f0 70 6d 21 03 7b 97 b6 3f ee eb d6 5e 0a 6a e3 bf
       0.08824890924863893 -0.6066943981489865
000100 41 12 38 8e c6 6a db bf cd b6 7c 49 a5 d1 fe 3f
       -0.4283920658929539 1.9261830206482273
000110 4c f5 78 35 3a 46 db bf 16 59 ff 9b c8 9c c3 bf
       -0.4261613390152277 -0.15322215668738498
000120 57 da ae 0b 7e 80 d4 3f 6a 81 bb ef cf 77 d5 bf
       0.3203425516216262 -0.3354377595078605
000130 00 1f e9 2f ce e9 d8 3f 0c 81 17 af 81 c0 df bf
       0.3892703502537955 -0.49612466906366204
000140 b8 21 28 bf 63 6d ee bf e8 fd f1 ec 98 86 d0 3f
       -0.9508532269983823 0.25821517123401216
000150 ac 3c 10 d1 e1 03 e3 3f 31 70 55 b4 26 04 da 3f
       0.5942238887090716 0.4065033684798918
000160 ed 8c ad ba 13 6f cf 3f 2e 16 79 84 05 18 bb bf
       0.2455773030770624 -0.1058352898044965
000170 4f 10 57 60 ac 3d d7 3f aa 95 14 b0 f6 28 df bf
       0.36313924225055855 -0.48687522120811855
000180 28 e9 b2 ed a6 a5 e1 3f 6f c8 db af f6 dd e2 bf
       0.5514711992794092 -0.5895951685654505
000190 35 07 fe d7 1b 57 e3 bf fb c5 5a 3d 39 f0 d6 3f
       -0.6043833941077766 0.3584120844999174
0001a0 62 f7 b4 7a 9b 24 60 3f 23 39 45 46 91 51 d7 3f
       0.001970580740503645 0.36435348379463245
0001b0 0d c1 13 d9 fb 1d e5 bf be e4 0f f1 76 13 d5 3f
       -0.6599101295269364 0.32931302586764477
0001c0 8f cd d8 c2 c3 a9 be bf 71 21 2d 0b f6 53 f1 bf
       -0.11977790362361972 -1.0829983173917663
0001d0 63 2e 88 fd 98 94 ff 3f 06 2c 8f 61 2c a9 dc bf
       1.9737787154762365 -0.4478255226828768
0001e0 16 20 6b 20 e8 d8 e0 bf 08 89 45 6d 37 b8 96 bf
       -0.5264778741047873 -0.022187105221186193
0001f0 3f 45 7b 74 ee f7 cb bf fc e8 16 35 62 d0 e2 3f
       -0.21850376784872513 0.5879374539283897
000200 7d 95 07 14 63 cd d4 bf 40 16 53 b1 51 f3 da bf
       -0.32503582912462275 -0.42110102002002137
000210 b6 7e 69 bf db 4f da 3f 15 91 45 81 a5 3b e8 3f
       0.41112416927897344 0.7572810673559923
000220 1d 70 b6 9a f7 9d d0 3f 4a a6 8b dd bc b4 cd 3f
       0.25964155300766995 0.23207817857410112
000230 3e 03 9b 42 ab f9 d3 3f f4 45 eb 38 3d bf e5 3f
       0.3121135855144991 0.679594622774117
000240 d3 5c 34 92 05 46 d2 bf f7 b6 44 15 46 38 dc 3f
       -0.2855237891939854 0.4409346778582938
000250 f7 46 98 97 a3 9c eb bf 8a d2 b2 08 70 3d fc bf
       -0.8628709755741671 -1.7649994220529686
000260 11 87 5c 24 cc 54 e1 3f a5 f6 ab 1a 67 20 bf 3f
       0.5416012487587257 0.12158817673840845
000270 a2 ab 60 f0 43 d6 e4 3f 56 f1 c7 98 be 72 f6 bf
       0.6511554427028055 -1.403013798523792
000280 02 5c 2c 1f f5 86 c7 3f 45 60 86 56 5d ad d6 bf
       0.18380607626087914 -0.3543313355417051
000290 e9 51 a5 98 4f 28 be bf d6 63 fc 7f ec 32 fb 3f
       -0.11780259587005272 1.6999325751732974
0002a0 ec be 04 53 43 3f d4 bf 5d d6 62 cd 78 60 c7 bf
       -0.3163612662055886 -0.1826315882550941
0002b0 ee b5 7a f8 a4 a2 c9 3f 26 74 f1 09 5b 94 d3 bf
       0.20027601368694498 -0.3059299084760049
0002c0 1e 58 b5 bb 8c 5c e9 3f c4 57 24 0e e4 9a ca bf
       0.7925475755862441 -0.20785189333463283
0002d0 95 2b f0 35 c8 42 ed bf 41 26 9c d5 86 05 d7 3f
       -0.914402108524302 0.3597123228106263
0002e0 d6 9c 32 b7 ae 7b dc 3f 58 ac ac 1a 17 2f d8 3f
       0.44504897966767254 0.3778741608136378
0002f0 6c 2e ef 73 4f f9 a7 3f 76 bb f2 e0 10 0e a7 bf
       0.04682396211827897 -0.04502918954800965
000300 4b 60 d1 d8 ec cc d7 3f 40 23 3e 18 8d d9 d3 bf
       0.37188264058705006 -0.31015326850370073
000310 0f e5 1b c5 39 d2 a7 bf 5d e4 a9 1c 3b 44 de bf
       -0.04652576953044207 -0.47291448401626274
000320 96 b4 19 6e ba a9 f2 bf 53 b0 ec a6 0e a3 e4 3f
       -1.1664375592038474 0.644904447578947
000330 a3 9a 78 20 49 81 c9 3f c4 f8 c9 60 4c af df 3f
       0.1992579849768009 0.4950743622974978
000340 f6 e3 fa 60 14 41 ea bf 01 d6 ec c6 c3 d1 b1 bf
       -0.8204442876950668 -0.06960700613566219
000350 de 9f 51 d2 7c e5 d3 bf 8b c4 85 c1 2d 52 e1 bf
       -0.3108818105597474 -0.5412815837609214
000360 17 5d 7b 36 44 7e 00 40 a2 29 52 00 2f 7d ce bf
       2.0616535431287377 -0.23819530025168684
000370 a4 26 48 bd ae f6 d1 bf 7b 84 4a 8b 07 ad d0 3f
       -0.28068130955271386 0.2605608806862347
000380 a5 46 93 69 08 a0 dc bf 77 46 2d e6 97 78 e2 3f
       -0.44726763067328995 0.5772208686486938
000390 75 e6 b5 8a b9 08 df bf 39 3c 25 0b 9b 86 e7 bf
       -0.48490751787139824 -0.7351813523945402
0003a0 50 64 33 60 de 07 d1 3f 05 c8 96 61 9c e8 e4 3f
       0.26610526461224016 0.6533948808703377
0003b0 2b 74 d4 ef 5d 49 e2 3f 64 74 10 db 47 14 c7 3f
       0.5714559253862083 0.18030641743181086
0003c0 70 88 1c 40 f1 79 d3 3f ba cd 0b 9d 25 b0 e0 3f
       0.30431777249226055 0.5215023104960246
0003d0 c9 0b 3f 4b 22 80 e4 bf 69 8c 82 22 b1 a5 d7 3f
       -0.6406413526204854 0.3694880330096511
0003e0 61 91 25 43 5e 38 f4 bf 53 0f 92 7f 8d d2 ea bf
       -1.2637617705268769 -0.838202237282966
0003f0 ce e5 88 3f d3 85 e9 3f de c6 b2 20 ad f8 9c 3f
       0.7975860825455869 0.02829237472605583
000400 a1 1b 87 56 ec 3d e3 3f f9 58 21 ac 55 ea f2 bf
       0.6013089838023583 -1.1822106098020966
000410 5b 0d ea 96 ba e9 b0 3f 81 c3 34 34 0d 25 c4 bf
       0.06606641945295648 -0.1573807244217527
000420 77 ca 23 26 a6 b6 e7 bf 26 50 67 0c a7 3a fb 3f
       -0.7410460228841903 1.7018194660677266
000430 50 3e 0a 48 c4 1b d2 bf 04 70 48 db dd dd db bf
       -0.2829447463527446 -0.4354166642604016
000440 1a 14 1f ab 67 6d d5 3f 1e 62 70 d5 08 41 db bf
       0.3348025485141207 -0.42584439128543916
000450 2d 22 c9 69 b0 32 e4 3f 3c 5f 7f a1 ca 56 d9 bf
       0.6311876360060232 -0.3959223343967897
000460 f4 47 bb 14 20 aa e8 bf 9e 80 18 f6 fd 15 ce 3f
       -0.7707672505296146 0.23504614368812765
000470 9c 29 43 db 0f 60 d7 3f 45 6c 3c 52 f2 5b cd 3f
       0.36523815548266625 0.2293684865515805
000480 12 d7 f9 bd fa 6f d7 3f d3 26 fc a3 85 b3 d7 bf
       0.36620968391740505 -0.37033215536267255
000490 7d ff 7e 4b 94 52 d1 3f e1 55 51 74 20 6f dd bf
       0.27066523907341616 -0.4599076400675966
0004a0 17 17 00 a0 be 85 db 3f 36 d9 f3 ae ae 56 e3 bf
       0.43003812432321936 -0.6043313424150145
0004b0 a7 1d 9c 0a 31 53 e0 bf 4e e8 ce 22 0a 8d d2 3f
       -0.5101552207205956 0.28985837363473343
0004c0 81 e1 29 be 3c 96 c5 3f d6 a0 b9 0a c3 92 c9 3f
       0.1686473778279485 0.19979131721198112
0004d0 40 0e 95 d5 04 36 e9 bf d2 d4 46 6f ba 68 d8 3f
       -0.7878441020515723 0.38139210574020155
0004e0 64 6c da e5 ec 5d d4 bf 27 8b 1d b5 c2 20 e8 bf
       -0.31823275038340726 -0.7539990937624211
0004f0 d2 1c ce a0 e4 e7 ec 3f 1c 34 d7 eb 97 9e dd bf
       0.9033072605824606 -0.46280477553665533
000500 6a 37 07 8a 33 ee cb bf a1 67 0c 90 11 25 74 3f
       -0.2182068275419014 0.004918163875823029
000510 5d 4f 3d a7 ac 17 d2 bf a9 d2 2b fa e0 94 e1 3f
       -0.28269497234326996 0.5494236837535783
000520 01 50 97 c8 79 62 d3 bf 7d ac e7 c6 f4 d1 e1 bf
       -0.30288548077555794 -0.5568794140684897
000530 aa 09 83 91 b1 1f e2 3f 3a 93 18 ec 03 0c e6 3f
       0.5663688509014737 0.6889667140245372
000540 c1 17 a3 d2 b8 64 d6 3f 50 55 b6 15 4d ff e1 3f
       0.34989758081462347 0.5624146865908788
000550 9d a8 a9 1c eb 0e c3 3f d0 fb 84 32 11 99 e4 3f
       0.14889277362391776 0.6436849581440303
000560 8b a2 1c ca 96 ea db bf bc 99 29 c7 32 cf e5 3f
       -0.4361931775806986 0.6815427675144785
000570 1b 16 52 79 fd 82 e8 bf eb 2e 90 c5 9c 13 f5 bf
       -0.7659900064033452 -1.317288181048691
000580 96 4b 0a 43 ba 80 cd 3f c3 9e 2c 96 0b c4 95 3f
       0.23049095414588966 0.02125566581813022
000590 13 c6 be b6 d4 ad d9 3f b4 62 26 eb 44 80 f0 bf
       0.4012347969647589 -1.0313157258553192
0005a0 86 1b c9 bf 16 dd d6 3f fe 51 74 ab 10 b2 de bf
       0.35724419335422686 -0.4796182321890966
0005b0 e9 3f a6 f5 40 9b db bf 13 24 10 1d f4 65 fc 3f
       -0.431350936786656 1.774891007926503
0005c0 6c d3 61 a7 ca 1d c8 bf 00 4e 1a 43 09 a4 d0 bf
       -0.18840916798549345 -0.2600119738865203
0005d0 cc cb bc c3 c9 c0 c7 3f 4a 64 23 c9 ab 1f c4 bf
       0.1855709272145688 -0.15721652337268416
0005e0 cb 17 0a c4 6c 1c e3 3f cc c1 c5 5a 78 28 c7 bf
       0.597219832314971 -0.18092255050897987
0005f0 ec 24 ff e1 45 bd e5 bf 23 f6 a4 f6 2e c6 d1 3f
       -0.6793546117779932 0.27772115789761836
000600 c9 33 ac e1 62 6d e5 3f ab c8 7f 9b 66 29 e3 3f
       0.669602814452099 0.5988038098423848
000610 6d 85 67 d0 da 39 ce 3f 22 37 5a f0 26 ce d4 3f
       0.23614058662409879 0.32508252593912534
000620 0a 4f 22 43 f0 9b dc 3f 83 08 9e 7a f4 f7 e3 bf
       0.44701773220116137 -0.624017943846653
000630 48 49 61 08 4e ac ad 3f 1a a5 99 40 de 4b d8 bf
       0.05795520641608448 -0.3796306258069123
000640 5a d2 58 fd 3c 01 e1 bf 39 fb 6b 8e 7c d8 e7 3f
       -0.5314011524374778 0.745176580588896
000650 5a 14 52 b3 03 4d b0 3f 84 d9 c0 ce 74 3f d4 3f
       0.06367514732308291 0.31637306395295917
000660 dc 92 31 08 55 71 f2 bf 28 89 b8 b8 ad 34 8d bf
       -1.1526689834656088 -0.01426063270543361
000670 38 8b 31 cd fa 31 d7 bf 44 08 b2 07 bb f1 e3 bf
       -0.36242551840239257 -0.6232581281949554
000680 b7 60 b1 5e 58 00 f7 3f 28 3b e3 99 2e 28 e1 bf
       1.4375842760983184 -0.5361550336473089
000690 3a db 80 bb f6 5a d1 bf 5d 8d 34 37 ef 48 bb 3f
       -0.2711769896590571 0.10658164117608267
0006a0 9e ce 86 b3 ce fb ce bf d0 f4 de 17 fe 06 d9 3f
       -0.24205955282160557 0.3910517914881213
0006b0 40 e3 29 59 95 c5 b9 bf e7 3e c8 17 dd 4b ee bf
       -0.10067113329740796 -0.9467606987472806
0006c0 d8 49 30 6f 7b ae cf 3f 08 4c ab 88 78 83 e7 3f
       0.24751227311260382 0.7347986859625744
0006d0 32 af 32 4a 20 fe c9 3f 49 8a 61 f4 dc d9 dd 3f
       0.2030678140921452 0.46642230859120964
0006e0 71 28 16 b3 35 6a db 3f 80 99 8b 7a b0 78 db 3f
       0.4283575295345435 0.4292412945491364
0006f0 1b 3b d0 17 c1 d8 cc bf e7 ae a1 9a bf e3 e4 3f
       -0.22536481535686267 0.65280132485847
000700 4a 3a a3 24 95 2c e3 bf b3 03 50 1d b2 e7 e3 bf
       -0.5991922107294354 -0.6220331738005512
000710 ca 4a 05 20 57 0d ed 3f 3b 3b a9 3c 39 38 ac bf
       0.9078784585384139 -0.055116451888002925
000720 e5 cd f9 d5 c0 1e da 3f b8 df c0 28 26 77 f1 bf
       0.40812703033517855 -1.09158912581732
000730 f1 02 92 73 61 39 d2 3f d5 37 48 44 44 e4 ea bf
       0.28475223814170564 -0.8403645833620838
000740 fa 80 83 5f e9 81 cc bf 62 92 3b 42 fc 3c f2 3f
       -0.22271458781961667 1.139889010163778
000750 74 cc 4c bf d1 7f d3 bf 34 b4 89 c4 2a c5 e0 bf
       -0.3046764724887858 -0.5240682448035217
000760 6d a1 3e ff 50 bf a5 bf 8f cf 9f 2c 78 cc cd bf
       -0.04247525325564792 -0.23280241183203684
000770 bc f4 9f 5e 20 dd c6 3f 4d d0 1a f7 38 2d d3 bf
       0.1786232435260099 -0.2996351636059032
000780 65 61 9d 2e 22 c9 ea bf 83 95 ac 33 37 ef b2 bf
       -0.8370524321026492 -0.07396264087272723
000790 04 1b 11 ae c0 38 f0 3f 67 b4 32 e1 ae c7 cb 3f
       1.0138556289181802 0.21703134532927779
0007a0 88 87 b7 41 d5 44 dd 3f ca 41 c0 2d d9 13 c2 3f
       0.4573262349859921 0.14123072370467887
0007b0 5f e7 c6 8a f6 88 d4 3f 0c a1 44 0a d4 ea be bf
       0.32085956146658207 -0.12077069521604161
0007c0 9d 14 ce 11 67 a4 df 3f 56 9a 38 eb bd 5b d7 bf
       0.4944093393208478 -0.3649744793969253
0007d0 fe af cd 75 61 81 ed bf 2a af f5 7a 72 71 da 3f
       -0.9220435429429015 0.4131742668894157
0007e0 db 81 68 f8 7b 9d b4 3f 07 81 1c 8d c5 35 dc 3f
       0.08052801909116829 0.440781963161513
0007f0 b5 f9 a9 c9 d1 db ed bf af 32 d1 9b 29 e8 d0 3f
       -0.9330834330319734 0.26417007652780006
